framework/online/AI_module/Video_prediction/best_model/net_object_encoder_500.pth (torch_old, 306742 bytes, 12 tensors)

main.0.weight f4 [8, 1, 4, 4]
-0.25578365 -0.21956168 -0.049342316 -0.059520476 0.15155579 0.15419911 0.31725496 0.31838787
0.19130962 0.10413676 0.14644395 0.19134466 -0.162672 -0.37226292 -0.40768543 -0.19949931
0.29028577 0.026217885 -0.12027651 -0.31878582 0.063006006 0.12139062 0.087324746 -0.18612699
-0.3055682 -0.2631002 -0.54889274 -0.5197164 0.0086990995 -0.059561893 -0.07850874 -0.123447716
0.12261244 0.056286946 0.055326473 -0.21915777 0.16774742 0.19464096 0.09032969 -0.32898656
0.23023058 0.2513866 0.14038938 -0.19060265 0.028548216 0.08610633 0.058015306 -0.014034926
-0.03860818 -0.055866707 -0.16406271 -0.11601078 -0.07688601 -0.3188711 -0.5334456 -0.29169458
-0.2722706 -0.7910898 -0.54481983 -0.2286078 -0.08238483 -0.2681676 -0.18849812 0.015127589
0.07345546 0.41085795 0.39377093 0.2815866 0.20542648 0.30897444 -0.042729322 -0.12097083
-0.13142721 -0.31557015 -0.54397094 -0.37299263 -0.095098205 -0.13391073 -0.08067105 0.16618422
-0.04927395 -0.13564599 0.29581806 -0.101820394 -0.45875928 0.20773521 0.3713175 -0.38278323
-0.2262246 0.6278326 0.2835926 -0.4624905 -0.04125286 0.24062425 -0.091403544 -0.18712856
-0.14372005 0.18716386 -0.073830426 0.0072534843 0.34603968 0.36089385 -0.43899167 -0.18499327
0.5424717 0.15048744 -0.56230307 -0.23948325 0.2212685 0.020890284 -0.31117415 0.095258325
-0.14509247 0.06441268 0.19834283 0.15068486 -0.18732733 0.37962922 0.5430684 0.2359932
-0.20487191 0.16868104 0.10270981 -0.014430876 -0.1255254 -0.006356753 -0.06629034 -0.011374214
00000000: 13f6 82be c7d4 60be 2b1b 4abd becb 73bd
00000010: 7131 1b3e 5fe6 1d3e 3e6f a23e bc03 a33e
00000020: abe6 433e a745 d53d 67f5 153e dbef 433e
00000030: 7d93 26be 3f99 bebe 25bc d0be 8c49 4cbe
00000040: 56a0 943e e4c6 d63c 8853 f6bd e537 a3be
00000050: 4b09 813d a59b f83d 51d7 b23d 1398 3ebe
00000060: 6f73 9cbe 12b5 86be 3c84 0cbf 220c 05bf
00000070: ab86 0e3c 2cf7 73bd 31c9 a0bd 28d2 fcbd
00000080: 3b1c fb3d 248d 663d 039e 623d e56a 60be
00000090: fbc5 2b3e f64f 473e c6fe b83d ed70 a8be
000000a0: 91c1 6b3e bfb5 803e 3cc2 0f3e 572d 43be
000000b0: f3dd e93c 8458 b03d 75a1 6d3d bff2 65bc
000000c0: 9c23 1ebd 7dd4 64bd 0e00 28be 0f97 edbd
000000d0: 6a76 9dbd 1343 a3be e48f 08bf fe58 95be
000000e0: 0d67 8bbe dc84 4abf 5079 0bbf 2a18 6abe
000000f0: 61b9 a8bd 434d 89be a705 41be b5d9 773c
00000100: d16f 963d f95b d23e 589c c93e 1e2c 903e
00000110: 525b 523e e631 9e3e f104 2fbd 8ebf f7bd
00000120: db94 06be 6992 a1be ae41 0bbf e4f8 bebe
00000130: d9c2 c2bd e51f 09be dd36 a5bd 322c 2a3e
00000140: 7bd3 49bd c8e6 0abe 7775 973e 3687 d0bd
00000150: 7fe2 eabe 8ab8 543e 541d be3e 2afc c3be
00000160: 6ca7 67be a3b9 203f 0d33 913e 8ecb ecbe
00000170: c2f8 28bd 3466 763e c831 bbbd a19e 3fbe
00000180: 592b 13be e2a7 3f3e 6834 97bd a3ae ed3b
00000190: 1d2c b13e 14c7 b83e 84c3 e0be e06e 3dbe
000001a0: 6ddf 0a3f 6119 1a3e 18f3 0fbf 193b 75be
000001b0: 3694 623e 1a22 ab3c 3852 9fbe cc16 c33d
000001c0: 1f93 14be ccea 833d 621a 4b3e 224d 1a3e
000001d0: bcd2 3fbe c35e c23e 8806 0b3f 34a8 713e
000001e0: f1c9 51be b9ba 2c3e 8559 d23d 7b6f 6cbc
000001f0: bb89 00be 4f4c d0bb 3bc3 87bd e95a 3abc

main.2.weight f4 [16, 8, 4, 4]
-0.16592404 0.092831634 -0.099143334 -0.32240817 -0.14827621 -0.078691885 0.31628788 -0.29160315
-0.21634468 0.042596463 0.13892713 -0.03944807 -0.011990584 -0.020803893 0.14868219 0.010744273
0.088899165 -0.48099145 -0.14586288 0.24455571 0.2846776 -0.074316025 -0.010244562 0.028732022
0.27444482 0.0710039 -0.008951883 -0.09418048 -0.0701508 -0.072824605 -0.18095598 -0.13157012
-0.20796473 0.03429492 0.2406091 -0.013025575 -0.5368314 -0.0683112 0.50872445 -0.15634733
-0.5225182 -0.23638934 -0.025840405 -0.24891722 0.062316984 0.057461742 0.07119884 -0.086251445
0.12167393 -0.3263915 -1.0108187 0.022133809 0.30451837 -0.1637581 -0.43577045 0.1939991
0.30489388 0.07378326 -0.089695275 0.1791882 -0.049078308 -0.06555981 -0.0656856 0.080605954
-0.22927022 -0.21219088 0.044285037 -0.0913419 -0.1395726 0.08351499 0.20565474 -0.014836505
-0.3430833 0.047530822 0.34089357 0.040642396 -0.043745287 0.28160855 0.28814757 -0.03556234
-0.0034496007 -0.06486697 -0.17758851 -0.058202837 0.021426078 -0.055653777 -0.0158139 -0.21768999
0.1451669 0.081213325 0.061625827 0.1858307 0.17270988 0.1867561 0.20948948 0.24431314
0.21648762 -0.82192457 -0.1765265 -0.26183775 -0.08976642 -0.47448316 -0.1335203 -0.1201538
0.15092334 -0.31719863 -0.20871244 -0.14820284 -0.026422903 -0.13177875 -0.1414125 0.107879594
-0.088419706 0.35849494 0.76818675 -0.026026672 -0.1700229 0.27237785 0.55369705 -0.17862967
-0.4065095 0.014882276 0.10740371 -0.16105258 -0.10585772 0.038919818 0.057016164 -0.031015022
0.0499415 0.0557246 0.073719524 -0.22227706 -0.27923232 -0.035103485 0.23394907 0.17370349
0.15617909 -0.4389902 0.013601261 0.059718855 0.11606141 0.08594079 0.25152296 0.04056834
-0.14606342 -0.5239987 -0.076571725 0.06913652 -0.5479471 -0.3678138 -0.06994998 -0.010485796
0.11004731 0.1198955 -0.028093724 -0.04213799 0.03537081 -0.07245315 -0.078477785 0.0088408785
-0.2916224 -0.06931215 0.058701817 0.06752495 -0.07117052 0.20576209 0.4092928 -0.024787996
-0.121541396 0.036656108 -0.14073698 -0.10191352 -0.16619869 -0.089880355 -0.09424763 -0.0023114067
-0.0096876295 -0.28693202 -0.24500528 0.07524009 -0.40367553 -1.4379714 -0.3158346 0.07968507
-0.11486771 0.0074036163 0.020003127 0.116417445 0.10759729 0.07830837 0.08811448 0.12424682
0.035205033 -0.41161948 -0.37421325 -0.1703662 -0.216195 -0.2795236 0.037964955 -0.08274454
0.0025469814 0.27944848 0.33246845 0.12280019 0.21931198 0.04563265 0.08788957 -0.009596699
0.5624834 -0.26749167 -0.44828022 0.23821826 -0.030673575 -0.27001652 -0.61754906 0.08298479
0.05586574 0.08125044 0.18667893 0.42347553 0.37630108 0.3943908 0.41943118 0.3798245
0.0011601467 -0.2154371 -0.28117517 0.011792089 -0.73897845 -0.3328839 -0.24137068 -0.1506795
-0.15503633 0.13189477 -0.032616485 0.08837518 0.09178998 0.32048953 0.27701053 0.2708016
0.0007158676 0.13717753 0.07670938 -0.21120101 0.25374576 1.3897369 0.23408778 -0.1421076
0.26294225 -0.008281644 0.07694663 -0.10638478 -0.04797196 -0.11007471 -0.05186579 -0.08130345
00000000: fee7 29be 831e be3d a90b cbbd af12 a5be
00000010: b8d5 17be 3629 a1bd 7cf0 a13e 024d 95be
00000020: 7689 5dbe a179 2e3d ea42 0e3e 4d94 21bd
00000030: 2874 44bc ed6c aabc 2540 183e bf08 303c
00000040: c410 b63d 8344 f6be 145d 15be d06c 7a3e
00000050: 43c1 913e 0033 98bd cfd8 27bc 6b5f eb3c
00000060: 0884 8c3e 7e6a 913d ebaa 12bc b2e1 c0bd
00000070: 39ab 8fbd 1125 95bd 864c 39be 51ba 06be
00000080: b5f4 54be d478 0c3d 3b62 763e 3969 55bc
00000090: c86d 09bf bee6 8bbd c43b 023f 8419 20be
000000a0: c1c3 05bf 0c10 72be 42af d3bc 28e4 7ebe
000000b0: 1840 7f3d 015d 6b3d b3d0 913d 99a4 b0bd
000000c0: 2e30 f93d c91c a7be 8262 81bf f651 b53c
000000d0: d5e9 9b3e 34b0 27be 4e1d dfbe b3a7 463e
000000e0: 0d1b 9c3e ae1b 973d 28b2 b7bd 1d7d 373e
000000f0: 5606 49bd 3944 86bd 2c86 86bd bc14 a53d
00000100: d0c5 6abe 9148 59be 3a64 353d 7611 bbbd
00000110: 1fec 0ebe e809 ab3d 2897 523e d014 73bc
00000120: 9da8 afbe aeaf 423d 9a89 ae3e a478 263d
00000130: 422e 33bd ff2e 903e 1488 933e d1a9 11bd
00000140: b212 62bb f9d8 84bd c3d9 35be 1966 6ebd
00000150: be85 af3c 37f5 63bd 278c 81bc 20ea 5ebe
00000160: a2a6 143e 2c53 a63d 5d6b 7c3d 674a 3e3e
00000170: dcda 303e fe3c 3f3e 6984 563e 392d 7a3e
00000180: eeae 5d3e a669 52bf 5dc3 34be 990f 86be
00000190: 75d7 b7bd 75ef f2be 8cb9 08be 3213 f6bd
000001a0: a68b 1a3e dc67 a2be b7b8 55be 7cc2 17be
000001b0: d874 d8bc 02f1 06be 70ce 10be faef dc3d
000001c0: 6415 b5bd a68c b73e e3a7 443f e335 d5bc
000001d0: 7c1a 2ebe 1c75 8b3e 17bf 0d3f b2ea 36be
000001e0: 0322 d0be cad4 733c 7af6 db3d f8ea 24be
000001f0: efcb d8bd 636a 1f3d c889 693d 3713 febc
00000200: 758f 4c3d 7a3f 643d 43fa 963d 999c 63be
00000210: 8af7 8ebe acc8 0fbd 5890 6f3e 54df 313e
00000220: 69ed 1f3e 53c3 e0be d3d7 5e3c c29b 743d
00000230: 9bb1 ed3d ba01 b03d 9ec7 803e fd2a 263d
00000240: a691 15be c724 06bf a3d1 9cbd 7397 8d3d
00000250: 4346 0cbf 1752 bcbe ef41 8fbd 9ecc 2bbc
00000260: 7c60 e13d c68b f53d cf24 e6bc e398 2cbd
00000270: fce0 103d 5162 94bd f6b8 a0bd 55d9 103c
00000280: 884f 95be 87f3 8dbd 5171 703d 854a 8a3d
00000290: d9c1 91bd 4cb3 523e d38e d13e 3210 cbbc
000002a0: b2ea f8bd b724 163d 5b1d 10be 09b8 d0bd
000002b0: fd2f 2abe 3113 b8bd e704 c1bd f87a 17bb
000002c0: ddb8 1ebc c1e8 92be aae2 7abe 7a17 9a3d
000002d0: 8fae cebe 720f b8bf 13b5 a1be ed31 a33d
000002e0: c33f ebbd 099a f23b 99dd a33c 456c ee3d
000002f0: f85b dc3d 2460 a03d 5d75 b43d 1e75 fe3d
00000300: 2733 103d cabf d2be e198 bfbe 7a74 2ebe
00000310: 3962 5dbe b81d 8fbe 2481 1b3d f875 a9bd
00000320: 42eb 263b df13 8f3e 4e39 aa3e aa7e fb3d
00000330: 5293 603e 4de9 3a3d 72ff b33d 793b 1dbc
00000340: e9fe 0f3f abf4 88be fc84 e5be 7def 733e
00000350: 2647 fbbc 9b3f 8abe b217 1ebf eef3 a93d
00000360: 79d3 643d a166 a63d c328 3f3e c9d1 d83e
00000370: 89aa c03e 97ed c93e afbf d63e 5b78 c23e
00000380: 1010 983a 8b9b 5cbe 31f6 8fbe 9b33 413c
00000390: b12d 3dbf c26f aabe e029 77be ba4b 1abe
000003a0: d8c1 1ebe 6c0f 073e dd98 05bd 0cfe b43d
000003b0: 63fc bb3d 3417 a43e 53d4 8d3e 82a6 8a3e
000003c0: 10a9 3b3a 4478 0c3e cf19 9d3d 1445 58be
000003d0: f7ea 813e e6e2 b13f b5b4 6f3e a884 11be
000003e0: 5ea0 863e bcaf 07bc 3296 9d3d 43e0 d9bd
000003f0: 3f7e 44bd d96e e1bd 3971 54bd 6c82 a6bd

main.3.weight f4 [16]
1.0581971 0.8588428 0.9666647 1.2395178 1.2064315 1.0265218 0.943929 0.7153162
0.955258 0.79801714 0.9630673 1.0707693 1.2523841 0.9111223 1.1437262 0.8383645
00000000: 0173 873f 1fdd 5b3f 5677 773f 85a8 9e3f
00000010: 596c 9a3f 1165 833f 55a5 713f f61e 373f
00000020: ca8b 743f da4a 4c3f 948b 763f f80e 893f
00000030: 1f4e a03f 503f 693f 9f65 923f 0e9f 563f

main.3.bias f4 [16]
0.03435806 -0.32160467 0.06036063 0.0042957063 0.11612326 -0.1470537 0.08836791 0.24065508
-0.31600776 0.42417544 0.005668254 -0.10942906 -0.2192986 -0.17460275 -0.80427384 0.20233554
00000000: 0abb 0c3d 5ea9 a4be b53c 773d ffc2 8c3b
00000010: 08d2 ed3d 3f95 16be 3cfa b43d 496e 763e
00000020: c5cb a1be 862d d93e c3bc b93b 581c e0bd
00000030: d08f 60be 10cb 32be e4e4 4dbf 0c31 4f3e

main.3.running_mean f4 [16]
0.03850495 0.6406783 -0.2139584 -0.84652317 -1.2732283 1.2044729 0.069742024 0.120409474
0.16428977 -0.08582842 -0.007198068 -0.8195838 -0.93153316 -0.14652063 0.122724034 -0.21410725
00000000: 5eb7 1d3d 7e03 243f e917 5bbe beb5 58bf
00000010: 25f9 a2bf 2b2c 9a3f e8d4 8e3d 3e99 f63d
00000020: 943b 283e d0c6 afbd c5dd ebbb 3ed0 51bf
00000030: f578 6ebf 8109 16be bd56 fb3d ee3e 5bbe

main.3.running_var f4 [16]
1.6160676 2.4232528 1.1257558 1.3703163 1.8896928 1.968664 0.9453715 0.42638782
1.1572616 0.39745298 0.98806834 2.125368 1.7151374 0.98313475 1.2615272 1.2887696
00000000: 4edb ce3f 9316 1b40 c418 903f 8666 af3f
00000010: 74e1 f13f 2ffd fb3f de03 723f 814f da3e
00000020: 2621 943f f57e cb3e 0cf2 7c3f 0806 0840
00000030: 9f89 db3f b8ae 7b3f b979 a13f 67f6 a43f

main.5.weight f4 [32, 16, 4, 4]
0.10993798 0.015429318 -0.110147335 -0.3418312 0.1885018 0.1474411 -0.3721146 0.0653969
0.3343175 -0.023955932 0.20788418 -0.035527926 0.12669879 -0.11215862 0.07580546 -0.025104914
0.008775605 0.16863085 0.0016425323 -0.31873694 -0.06716651 0.24370004 -0.28151348 0.23493703
-0.00623048 -0.36847004 -0.15832074 0.22625129 0.0041670823 0.02287572 -0.07136081 0.036860127
-0.21125582 -0.012516011 0.19225615 0.31598383 -0.068357766 -0.022608273 0.060372174 0.009883072
-0.11225516 -0.3521608 -0.5871651 0.15144691 -0.06071459 -0.18956093 -0.29387054 -0.055964787
0.18919502 0.037895367 -0.27564272 0.023101669 0.37794262 0.058792625 -0.010499555 -0.5302174
-0.1320965 0.44369566 -0.09320134 0.10724696 0.16624272 0.20142618 0.3157257 0.14925748
0.19428703 0.10402371 0.037539944 0.12256139 0.086859964 0.04977782 0.032960698 0.13689652
-0.178015 0.041388582 0.1791789 0.24939258 -0.025095664 -0.16447538 -0.13447997 0.09477891
-0.17232163 0.50522166 0.22063106 -0.28069347 -0.37782195 0.14365377 0.18368638 -0.07467401
-0.30520406 -0.3121997 0.05848752 0.22000183 -0.47534418 -0.06787865 0.107798405 -0.3945986
0.25159022 0.20131533 0.063990496 -0.255558 0.3881666 -0.30760238 0.13373351 -0.3486688
0.30856836 0.020071018 0.48129794 0.32868287 -0.047440004 0.11463593 0.2909131 -0.31616592
-0.14185883 -0.44856772 -0.30471468 0.14403878 -0.057783358 -0.25448194 -0.5077032 0.20406109
-0.48246855 -0.08844214 -0.99819773 -0.15734962 0.18275201 0.09279612 0.21530984 0.020740015
0.0049440903 -0.26000786 -0.09912145 0.011543726 -0.27480432 -0.10914669 -0.14222866 0.15043972
-0.54019034 -0.5511687 -0.6447801 -0.2154222 0.0972163 -0.23132247 -0.43019545 0.27554315
0.36319378 0.13463894 0.1626718 -0.29440582 0.49011207 -0.14759588 0.41499206 0.38419566
0.6072389 0.020965554 -0.31796852 -0.15102358 0.274061 0.17677583 -0.42657134 -0.34168294
0.39974254 -0.2763133 -0.15451427 -0.41913623 -0.07893209 0.096365325 0.13778414 -0.28442633
-0.0079442775 0.13980764 0.5175441 -0.04003868 0.07290691 0.08606012 0.22180818 -0.053964164
0.20773783 0.4043486 -0.18100122 -0.11288459 -0.46734628 0.10579252 0.33672684 -0.017137233
-0.4884587 -0.26608935 0.3094832 -0.23810396 0.08608415 -0.25155395 -0.06398934 0.35177618
-0.3252249 -0.0012077319 -0.09423719 0.17291765 -0.13617311 -0.108813666 0.04428384 0.12934288
-0.049800325 -0.34677687 -0.018775867 0.17343692 0.24328 -0.040559094 0.12083332 0.23651616
0.029691149 -0.21753071 0.06750179 -0.41532484 0.4745876 -0.07253342 -0.33698875 -0.12831636
0.43986475 -0.34014928 -0.21901666 0.32345867 0.2062058 0.20902182 0.28058845 0.193078
0.072269194 0.1463648 0.24344231 0.24375843 0.038225234 -0.12728614 -0.31607231 0.22871022
-0.04720085 -0.4005195 0.010149394 -0.009250309 -0.10288111 -0.025181778 -0.34886387 -0.45445573
-0.121005595 0.027917564 -0.55832934 0.4058828 0.018188534 -0.40954253 -0.20528395 0.51852846
-0.25635195 -0.7455299 -0.6895595 -0.028217396 -0.11306098 -0.28386223 -0.21970667 0.44644368
00000000: 2a27 e13d 40cb 7c3c ed94 e1bd 8004 afbe
00000010: 9e06 413e cdfa 163e ce85 bebe cfee 853d
00000020: aa2b ab3e 3b3f c4bc 97df 543e bb85 11bd
00000030: 54bd 013e 6bb3 e5bd e53f 9b3d d2a8 cdbc
00000040: 8ec7 0f3c 91ad 2c3e 3d4a d73a 7d31 a3be
00000050: 988e 89bd 818c 793e 8922 90be 5593 703e
00000060: 0e29 ccbb 1ba8 bcbe d51e 22be 6bae 673e
00000070: 058c 883b dd65 bb3c 9e25 92bd a5fa 163d
00000080: 7253 58be f40f 4dbc ccde 443e a2c8 a13e
00000090: 28ff 8bbd fc34 b9bc d048 773d 9cec 213c
000000a0: 09e6 e5bd 6c4e b4be 7450 16bf e614 1b3e
000000b0: ddaf 78bd 431c 42be 3376 96be 553b 65bd
000000c0: 57bc 413e 2c38 1b3d 0b21 8dbe b63f bd3c
000000d0: b281 c13e 89d0 703d 5306 2cbc 54bc 07bf
000000e0: 4e44 07be 142c e33e 58e0 bebd 4ba4 db3d
000000f0: 883b 2a3e aa42 4e3e cda6 a13e f4d6 183e
00000100: 2ef3 463e 620a d53d 7cc3 193d 7701 fb3d
00000110: a3e3 b13d d4e3 4b3d cc01 073d 9a2e 0c3e
00000120: 9049 36be 1387 293d ac7a 373e c560 7f3e
00000130: 6c95 cdbc 3c6c 28be 1eb5 09be 721b c23d
00000140: 1575 30be 3556 013f 1ced 613e 0eb7 8fbe
00000150: e171 c1be f919 133e 4818 3c3e b0ee 98bd
00000160: b543 9cbe a4d8 9fbe 9c90 6f3d 2948 613e
00000170: 5060 f3be f603 8bbd 69c5 dc3d d408 cabe
00000180: 6fd0 803e 9b25 4e3e 730d 833d 80d8 82be
00000190: c6bd c63e 0f7e 9dbe 70f1 083e b884 b2be
000001a0: acfc 9d3e fa6b a43c af6c f63e 1f49 a83e
000001b0: 7350 42bd 3ec6 ea3d 90f2 943e 80e0 a1be
000001c0: 7143 11be abaa e5be 9003 9cbe e77e 133e
000001d0: 3eae 6cbd 754b 82be d6f8 01bf 64f5 503e
000001e0: 1e06 f7be 2721 b5bd e389 7fbf 4220 21be
000001f0: 5823 3b3e e40b be3d 2f7a 5c3e f7e6 a93c
00000200: 0902 a23b c01f 85be 3000 cbbd e521 3d3c
00000210: 27b3 8cbe 4d88 dfbd 64a4 11be df0c 1a3e
00000220: ea49 0abf 6419 0dbf 4f10 25bf a397 5cbe
00000230: 5719 c73d ccdf 6cbe 9442 dcbe fe13 8d3e
00000240: 89f4 b93e cade 093e 7093 263e 5cbc 96be
00000250: f8ef fa3e 6023 17be d779 d43e 4bb5 c43e
00000260: 0274 1b3f f4bf ab3c c5cc a2be eda5 1abe
00000270: b951 8c3e b904 353e 8f67 dabe 11f1 aebe
00000280: 0eab cc3e f078 8dbe fd38 1ebe 0699 d6be
00000290: 26a7 a1bd 2f5b c53d 4917 0d3e 54a0 91be
000002a0: b728 02bc bc29 0f3e c57d 043f 99ff 23bd
000002b0: 3850 953d 4a40 b03d af21 633e 8709 5dbd
000002c0: 3ab9 543e c806 cf3e 6258 39be 0930 e7bd
000002d0: 0348 efbe c0a9 d83d 7667 ac3e 6263 8cbc
000002e0: 4217 fabe dd3c 88be 9574 9e3e 86d1 73be
000002f0: e34c b03d aecb 80be d80c 83bd 021c b43e
00000300: e183 a6be c24c 9eba 6eff c0bd 5311 313e
00000310: f770 0bbe b3d9 debd f962 353d 7672 043e
00000320: 6dfb 4bbd bd8c b1be d9cf 99bc 7399 313e
00000330: 641e 793e 4b21 26bd 7677 f73d 4b31 723e
00000340: da3a f33c 5fc0 5ebe 613e 8a3d 75a5 d4be
00000350: 25fd f23e 678c 94bd ca89 acbe 5d65 03be
00000360: f435 e13e 0c28 aebe e745 60be 609c a53e
00000370: 9d27 533e d109 563e 4aa9 8f3e 3db6 453e
00000380: df01 943d a7e0 153e f148 793e cf9b 793e
00000390: 1092 1c3d 4c57 02be 3bd4 a1be 0333 6a3e
000003a0: ae55 41bd e410 cdbe a549 263c 9c8e 17bc
000003b0: 55b3 d2bd 044a cebc 499e b2be 6cae e8be
000003c0: c8d1 f7bd 60b3 e43c acee 0ebf dfcf cf3e
000003d0: 1f00 953c 8faf d1be f535 52be 48be 043f
000003e0: 9040 83be 0cdb 3ebf f986 30bf 2b28 e7bc
000003f0: 848c e7bd 6456 91be c9fa 60be 4494 e43e

main.6.weight f4 [32]
0.047991395 0.045493476 0.061834533 0.035940494 0.075054 0.12334341 0.08913562 0.069841735
0.054701816 0.14195761 0.051007386 0.048558604 0.05418716 0.06219298 0.096609466 0.050141606
0.09220212 0.054058433 0.064021885 0.082345866 0.05610354 0.042164493 0.04521913 0.043182716
0.042269647 0.06984663 0.09286693 0.04167811 0.042955123 0.03718286 0.068553865 0.05007125
00000000: a092 443d 5e57 3a3d 3546 7d3d 5736 133d
00000010: e9b5 993d 789b fc3d bc8c b63d 2f09 8f3d
00000020: 030f 603d 565d 113e 1fed 503d 63e5 463d
00000030: 5bf3 5d3d 11be 7e3d 2fdb c53d 4961 4d3d
00000040: 77d4 bc3d 606c 5d3d e81d 833d f3a4 a83d
00000050: d3cc 653d adb4 2c3d b237 393d 5ce0 303d
00000060: f022 2d3d c00b 8f3d 0431 be3d aab6 2a3d
00000070: b6f1 2f3d 0e4d 183d f865 8c3d 8317 4d3d

main.6.bias f4 [32]
-0.028440543 -0.016289268 -0.03756079 -0.007875319 -0.048092376 -0.066962875 -0.04150368 -0.034082264
-0.028354034 -0.08553576 -0.017966326 -0.029316481 -0.020506818 -0.03405956 -0.050990008 -0.0134944115
-0.05861616 -0.022077499 -0.034157068 -0.037359394 -0.025237508 -0.02769624 -0.023244096 -0.02706824
-0.009937677 -0.025991658 -0.05557762 -0.025626637 -0.016932007 -0.0069662128 -0.043186177 -0.014781364
00000000: 24fc e8bc 1271 85bc 58d9 19bd 7b07 01bc
00000010: 83fc 44bd d523 89bd c3ff 29bd d899 0bbd
00000020: b846 e8bc 5f2d afbd 1e2e 93bc 1e29 f0bc
00000030: eafd a7bc 0a82 0bbd e6da 50bd aa17 5dbc
00000040: 8017 70bd dfdb b4bc 48e8 0bbd 2a06 19bd
00000050: e4be cebc 3ae3 e2bc 676a bebc 37be ddbc
00000060: a3d1 22bc 75ec d4bc 5ca5 63bd f4ee d1bc
00000070: feb4 8abc d444 e4bb fde3 30bd 892d 72bc

main.6.running_mean f4 [32]
-1.3737109 -0.9025167 5.1208124 1.5205821 4.5349994 3.6500702 1.2486781 0.39862868
-1.2540205 1.8700194 -2.010224 1.8932506 -0.34371445 -1.0057514 0.7012677 0.30799213
-1.0605664 2.5492222 -3.9238665 -0.9975785 -3.0248291 -0.3149767 -4.466327 0.17041233
1.6945858 -2.1306143 -1.4306808 1.9423282 0.51280826 -1.7001934 1.6030092 -0.41587397
00000000: c2d5 afbf 560b 67bf b2dd a340 6fa2 c23f
00000010: b71e 9140 c09a 6940 afd4 9f3f 0f19 cc3e
00000020: be83 a0bf cc5c ef3f 83a7 00c0 0956 f23f
00000030: 57fb afbe 76bc 80bf 4886 333f 25b1 9d3e
00000040: a4c0 87bf 7526 2340 a120 7bc0 4e61 7fbf
00000050: cd96 41c0 a044 a1be 27ec 8ec0 9280 2e3e
00000060: 30e8 d83f fc5b 08c0 8c20 b7bf 369e f83f
00000070: 6747 033f f09f d9bf 682f cd3f 6fed d4be

main.6.running_var f4 [32]
8.518617 12.119083 11.866348 7.887208 14.349989 44.16857 24.49879 17.167753
21.72283 49.774105 22.154871 9.94819 15.693777 19.865997 44.64852 25.33505
38.085617 19.696325 18.588894 18.267813 9.9661875 9.123909 9.39172 6.5967193
10.147234 23.486067 19.790136 11.07196 10.553806 11.695401 15.883228 20.726513
00000000: 414c 0841 c4e7 4141 90dc 3d41 0264 fc40
00000010: 8e99 6541 9eac 3042 86fd c341 8f57 8941
00000020: 5bc8 ad41 af18 4742 2d3d b141 c92b 1f41
00000030: b619 7b41 90ed 9e41 1698 3242 2fae ca41
00000040: ac57 1842 1392 9d41 0eb6 9441 7b24 9241
00000050: 8175 1f41 88fb 1141 7c44 1641 5318 d340
00000060: 125b 2241 77e3 bb41 3352 9e41 c026 3141
00000070: 64dc 2841 5d20 3b41 b421 7e41 e6cf a541

main.8.weight f4 [128, 32, 4, 4]
0.17266273 0.016765371 0.21129812 -0.17717783 0.030199962 -0.041567665 -0.04940299 0.36958563
0.050160583 0.067300566 0.017000804 0.010582479 -0.04950255 0.02544934 -0.07235965 -0.08996271
0.10239012 0.12463544 -0.40353394 -0.18817757 -0.29779422 0.007150415 0.119588315 -0.36297888
0.07746975 0.3136658 0.20660707 0.23434034 0.04117155 -0.06003698 0.32887825 -0.12572008
-0.22802669 0.06378102 0.04424307 -0.63479424 -0.3861921 -0.049000006 -0.040990587 0.061225828
-0.13220815 0.030610692 0.12342512 -0.4218456 0.06490377 0.015716664 0.054456804 0.3354961
0.061029438 0.1742966 0.016602037 0.19753851 -0.24691017 0.15779722 -0.098813064 -0.16462381
-0.24263935 -0.050271284 0.10301445 0.08697103 0.073627695 -0.11316389 0.1367637 -0.08103565
-0.28638554 -0.06963435 0.041099466 -0.10058142 -0.3411049 0.2308094 0.08998402 0.48034543
0.4100008 0.089215204 -0.07228236 -0.076384865 -0.19804946 -0.11469582 -0.024106892 0.15787937
-0.24267277 -0.14094004 0.06806405 0.11699905 -0.07481673 -0.060958184 -0.10724892 0.44472829
-0.05281458 0.002648301 -0.14963157 0.089073054 -0.2394642 -0.022969976 0.17114443 -0.15966028
-0.054064058 0.12711433 0.12419088 0.20587577 0.1890654 -0.08255268 -0.14670645 0.16180888
-0.024562854 0.10253571 0.1678049 0.049135853 -0.13216445 -0.02649571 0.5014273 0.1210162
-0.1614788 -0.04655583 -0.53136367 0.29986262 -0.27017272 -0.05429925 0.28100607 0.16372024
0.32882673 0.1249803 0.27970442 0.8419442 0.048728053 -0.031082133 -0.19016688 -0.032006487
0.0029913313 -0.054076497 -0.025916142 -0.16385208 0.06774731 0.04262925 -0.2338015 0.41320938
0.123196684 0.22319725 -0.27876148 -0.5611125 -0.3552127 -0.08461156 -0.039227482 0.0030524028
-0.039407104 -0.078852765 0.17407319 -0.19437294 0.2679274 0.025628174 0.027307363 -0.16965319
-0.10266816 -0.16216785 -0.2876255 0.19161288 -0.14293985 -0.058846537 0.02425363 -0.2434538
-0.28838307 0.04393082 0.11303635 -0.120916 -0.13771771 0.0693012 0.069479406 0.093802966
-0.003968499 -0.18110667 -0.39081445 0.11966989 0.39606175 0.0044890377 -0.414685 0.20030437
0.08070904 0.023087744 0.24514069 -0.090147234 -0.07920521 -0.061247226 0.011054349 -0.013692144
0.24706161 -0.009661619 0.19303891 0.1427932 -0.0023600508 0.10381918 -0.057006605 -0.13451904
0.52134943 -0.18856002 -0.14310712 -0.077031665 0.1023234 0.019765422 -0.34380677 -0.09429059
-0.07761031 -0.41830418 0.22354218 -0.12614624 0.0040057874 0.3741197 -0.100777216 -0.13586798
0.023517318 -0.40858245 -0.14616117 -0.17100292 -0.27678555 -0.19779263 0.20097713 0.26289397
-0.09356245 -0.100759365 -0.0052393554 0.13833234 -0.06538783 0.2790221 -0.015757408 0.16494158
-0.002021599 -0.22240368 -0.10443062 -0.30005008 0.07970011 0.24834733 0.16055651 -0.075087994
0.46121913 0.35104337 0.06565607 -0.07135973 -0.20478857 -0.2969064 0.22063783 -0.16132924
0.4148366 -0.24540403 -0.28567883 0.049776804 0.17085648 0.014027624 -0.30904198 0.18271577
-0.011659159 0.021783076 0.09797419 0.56636083 0.07314817 -0.09069182 -0.11646911 -0.36734402
00000000: 80ce 303e 8857 893c 895e 583e 1b6e 35be
00000010: e965 f73c db42 2abd ca5a 4abd 543a bd3e
00000020: 2f75 4d3d e1d4 893d 4545 8b3c 2262 2d3c
00000030: 30c3 4abd 227b d03c 4c31 94bd 5f3e b8bd
00000040: e9b1 d13d de40 ff3d 009c cebe 9fb1 40be
00000050: 7c78 98be 074e ea3b b8ea f43d 5ed8 b9be
00000060: 76a8 9e3d ce98 a03e ce90 533e eaf6 6f3e
00000070: 80a3 283d 56e9 75bd bb62 a83e c4bc 00be
00000080: d47f 69be a09f 823d 3938 353d e081 22bf
00000090: f9ba c5be 3bb4 48bd bfe5 27bd efc7 7a3d
000000a0: 9361 07be 46c3 fa3c 4fc6 fc3d 25fc d7be
000000b0: 45ec 843d 3cc0 803c 190e 5f3d 25c6 ab3e
000000c0: 01fa 793d cf7a 323e ff00 883c 8947 4a3e
000000d0: 05d6 7cbe 9895 213e 815e cabd 2593 28be
000000e0: 7376 78be 43e9 4dbd 3df9 d23d de1d b23d
000000f0: 1eca 963d 78c2 e7bd c90b 0c3e 05f6 a5bd
00000100: 20a1 92be 749c 8ebd ea57 283d a2fd cdbd
00000110: 4da5 aebe 4d59 6c3e 8b49 b83d d6ef f53e
00000120: a0eb d13e 76b6 b63d c608 94bd ab6f 9cbd
00000130: 7acd 4abe a4e5 eabd d17b c5bc 21ab 213e
00000140: 367f 78be 9652 10be 2a65 8b3d 339d ef3d
00000150: 8439 99bd 4aaf 79bd 52a5 dbbd 6db3 e33e
00000160: 1a54 58bd 1e8f 2d3b 0539 19be ef6b b63d
00000170: 1a36 75be 882b bcbc 7c40 2f3e fc7d 23be
00000180: 4672 5dbd 422a 023e ca57 fe3d 19d1 523e
00000190: 5c9a 413e 6111 a9bd 373a 16be 3ab1 253e
000001a0: 0a38 c9bc 3efe d13d 0cd5 2b3e ad42 493d
000001b0: 1e56 07be 880d d9bc 8a5d 003f 57d7 f73d
000001c0: b35a 25be 53b1 3ebd 7307 08bf 9887 993e
000001d0: 1454 8abe e468 5ebd 07e0 8f3e 47a6 273e
000001e0: fa5b a83e acf5 ff3d 6b35 8f3e a889 573f
000001f0: 1197 473d f59f febc 1bbb 42be 3c19 03bd
00000200: 360a 443b 517f 5dbd 174e d4bc d7c8 27be
00000210: 1abf 8a3d 029c 2e3d a969 6fbe 2e90 d33e
00000220: 8b4e fc3d d28d 643e d3b9 8ebe 12a5 0fbf
00000230: 70de b5be d348 adbd ffac 20bd d20a 483b
00000240: 5869 21bd 8f7d a1bd 3e40 323e b309 47be
00000250: c82d 893e 2df2 d13c b1b3 df3c 91b9 2dbe
00000260: af43 d2bd 540f 26be a643 93be 2b36 443e
00000270: d35e 12be 1109 71bd 8caf c63c f44b 79be
00000280: f2a6 93be cef0 333d 9a7f e73d cfa2 f7bd
00000290: df05 0dbe caed 8d3d 384b 8e3d c51b c03d
000002a0: 2f0a 82bb 0774 39be d518 c8be 7d15 f53d
000002b0: 9bc8 ca3e c718 933b 9851 d4be 971c 4d3e
000002c0: c84a a53d 8222 bd3c 2906 7b3e 1d9f b8bd
000002d0: 5736 a2bd 5fde 7abd 4d1d 353c 0455 60bc
000002e0: b8fd 7c3e c44b 1ebc feab 453e 6138 123e
000002f0: 15ab 1abb 269f d43d c27f 69bd 5cbf 09be
00000300: 2877 053f e115 41be ac8a 12be c7c2 9dbd
00000310: ee8e d13d 18eb a13c 7107 b0be 6d1b c1bd
00000320: 27f2 9ebd f72b d6be 3ee8 643e 7b2c 01be
00000330: fb42 833b 9e8c bf3e 4964 cebd fa20 0bbe
00000340: 64a7 c03c b831 d1be 46ab 15be 641b 2fbe
00000350: d6b6 8dbe 278a 4abe f3cc 4d3e 0a9a 863e
00000360: ab9d bfbd ed5a cebd e6ae abbb fea6 0d3e
00000370: 0eea 85bd fcdb 8e3e ae15 81bc 72e6 283e
00000380: ce7c 04bb cabd 63be b9df d5bd 2aa0 99be
00000390: d039 a33d c34e 7e3e ed68 243e bcc7 99bd
000003a0: ea24 ec3e f5bb b33e b176 863d 0d25 92bd
000003b0: 18b4 51be 1e04 98be e2ee 613e 7e33 25be
000003c0: 7665 d43e 324b 7bbe 7f44 92be c3e2 4b3d
000003d0: 00f5 2e3e 1fd4 653c c03a 9ebe d819 3b3e
000003e0: 0f06 3fbc 6c72 b23c b1a6 c83d 06fd 103f
000003f0: b5ce 953d a2bc b9bd 5b87 eebd 8414 bcbe
