framework/online/AI_module/Video_prediction/best_model/net_content_lstm_500.pth (torch_old, 266270 bytes, 6 tensors)

encoder.weight_ih_l0 f4 [256, 128]
00000000: 9f48 8abc d4d7 b6bd c0ff 20be 182b a8bd
00000010: adf2 2ebd c063 b03d bb0d abbc dad2 51be
00000020: 24ed b33c bad0 adbd 9575 0dbe 445e cebd
00000030: e045 f93d 0c2d f23d cb61 703c 8236 58be
00000040: f222 6e3e 40a2 223e a218 9b3d 2ef1 993d
00000050: 4e2d 223e 9dc1 fabc ed11 023e 6d09 8ebc
00000060: 1ebe 0fbe 4e6f 21be 1c1e 723d 3db4 5c3d
00000070: 2e61 c2bc b594 3abe 682e c2bc 0732 e4bd
00000080: cdc6 7dbd bad5 623d 061e b03d 2ee6 19be
00000090: f5a1 13bd 1f86 113e 2395 2a3e 8420 d2bd
000000a0: a803 7fbd d0c0 67be 915d 613d b23f 83be
000000b0: f340 d4bc b31b 8c3d 8da3 4bbd 2007 143c
000000c0: 6f57 96bc 6cb4 923c 916d 1cbc a952 393d
000000d0: 792d 9d3d 639f c7bd 01c0 e9bc 0eb3 7fbd
000000e0: 6b65 79bc eb3e 4a3c e38b dc3d a119 c0bd
000000f0: f9aa 65be d4ba 9ebc 4ecd 4bbe f111 b33c
00000100: 6626 203d 6a9e 80be 9e7d 04bd 6294 983e
00000110: 9aed fbbd c82c 853d 5041 7abd 45c1 4fbd
00000120: c6d0 94bd 0f99 0ebe c30b 7e3c 721f 003d
00000130: 6110 783d fc46 023e 3fc3 033e 1912 3d3d
00000140: 422c 2abe 4f78 f7bd eb11 a13d a682 00be
00000150: 6a15 583e 72e0 c6bd e8a5 65bc 2f06 f73c
00000160: 34b4 a63c 8289 2c3c 6e7b bd3d ca12 453e
00000170: 3ece 023e f882 863c 9d39 f6bd 472d 81be
00000180: 4aa6 353e 03c2 163e 3087 b43c 9718 8dbd
00000190: fa19 2c3d 4b63 7f3d f277 ca3d 9d8e 4a3e
000001a0: c586 35be a14d 33bc d8ea c3bc ac2b 733c
000001b0: 0d0f 5bbd fa4f ac3c 5ccc e0bd 2bf8 06be
000001c0: 8c0a edbc 8ffa e23d 211f 553d ee8f 2d3e
000001d0: 22b1 df3d 2e60 7e3b d9d7 c7bd 9488 b8bc
000001e0: d94e 103d 3ab4 9c3e fc69 4d3e 5aa9 09be
000001f0: 95a6 bd3c be6d b63c 472d 243e a774 86bb
00000200: 2ab2 693d 7777 1d3e a3ad 07bd a9e4 b93d
00000210: c506 b23c 8806 563e 1ae6 323e 7bfa 05be
00000220: ab30 bdbd 8794 353e 1266 55bb 953c 89be
00000230: 5ed4 c13d e3a1 b73d db36 193c 8200 1abd
00000240: 7aad 333e ac0b a3bd 36eb 083e 1b49 abbe
00000250: 4923 c0be 7c2c 8f3d baf5 cf3c b4b3 2fbe
00000260: 83f9 f43d 1c6f 033e 457e a33d 3740 e33d
00000270: e865 c3bd 149b 5abd 3205 edbe e393 3a3e
00000280: 5a57 b73c f1c0 0f3c 38cf 313d a365 0bbe
00000290: 7a4b d73d c329 973e 85df 31bd e1f2 3cbe
000002a0: 73bd 72bd 9dc8 b43c 5aef 3fbe d888 04be
000002b0: 68ac 21bd f2d3 163e ed8d 85be fd74 a03c
000002c0: a2f8 763e 00b7 6d3d 362a 853e b8b0 1b3d
000002d0: 9c49 983d c52a 933d 795e 1abd 3b35 01be
000002e0: b0e0 9f3e 7fa1 19be ffb2 4abd da95 203e
000002f0: f940 2c3b d989 2cbe f2dc b13b 1ebd 033e
00000300: 5f97 63be 237a 0cbe dce5 83bc 6292 583e
00000310: 7f3a 5e3d 7913 2cbe 7522 2c3e 4816 94be
00000320: 85c0 4d3e dfb9 543e c4db 873c d70c 4fbe
00000330: 449e 2f3a d72f dbbd b428 443e 642a fabd
00000340: ed05 643d 6404 173e 885d 86be 59bc 143e
00000350: bc5b 033e ed56 633d a4ee c43d 04f5 6cbe
00000360: 5762 dfbc a328 53be e5e6 9a3e a913 17bc
00000370: e206 963e d61c 0abe ae4e 4fbe de9c c43a
00000380: 2774 0f3e 71cc 1b3e caab 0cbe aec2 2c3e
00000390: ccb2 b2bd 3ec9 22be 8848 383e c95c 6e3e
000003a0: 9ed6 32be 558b 6e3e caab 5d3d 4aa2 12bd
000003b0: d181 3abd d7f4 3abd f4d5 413e 0cd2 61be
000003c0: 7c87 083d 3c95 cb3d 12b8 80bd 24e8 27be
000003d0: d2a7 a43d 1310 7f3b b69e 48be 8701 653e
000003e0: 83ad 573e 0825 9abe 89b1 a7bd 39a8 083e
000003f0: 41a7 0bbe 1f6d 903d 3da6 ad3c a111 41be
-0.016880332 -0.08927885 -0.15722561 -0.082113445 -0.042711902 0.08612776 -0.02088057 -0.2049059
0.021963663 -0.08487077 -0.13814385 -0.100765735 0.12171531 0.11824998 0.014671753 -0.21114543
0.23255518 0.15882206 0.07573058 0.075167045 0.15837595 -0.0306099 0.1270215 -0.017338479
-0.14037368 -0.15765116 0.059110746 0.053882826 -0.02372798 -0.1822079 -0.023703769 -0.111423545
-0.06195717 0.055379607 0.085994765 -0.15029213 -0.036043126 0.1421132 0.16658454 -0.10260108
-0.062259346 -0.22632146 0.055020873 -0.25634533 -0.025909876 0.06841221 -0.04971652 0.009034902
-0.018352238 0.017908297 -0.009547607 0.045244846 0.07674689 -0.097471975 -0.028533937 -0.06242662
-0.015221934 0.012344102 0.10768869 -0.09379888 -0.22428502 -0.019376196 -0.19902536 0.021859141
0.03909912 -0.2512086 -0.03234636 0.29800707 -0.12301178 0.06502682 -0.061097443 -0.050721426
-0.07266383 -0.13925575 0.015505734 0.03127999 0.060562495 0.12722391 0.12867449 0.046159837
-0.16618446 -0.12083494 0.07864746 -0.12549838 0.21101919 -0.09710778 -0.014016606 0.030154316
0.0203496 0.010530831 0.09252058 0.19245449 0.12773988 0.016419873 -0.120227076 -0.25229856
0.17739215 0.14722447 0.022037119 -0.06889456 0.04201696 0.062350553 0.09886159 0.19780965
-0.17727192 -0.010943801 -0.023915693 0.014841955 -0.05348115 0.02103423 -0.109764785 -0.13180606
-0.028935693 0.110829465 0.05203164 0.16949436 0.10922457 0.0038814652 -0.097579665 -0.022526063
0.035231445 0.30606252 0.20059961 -0.13443509 0.023150722 0.022269126 0.16032897 -0.0041032615
0.057054676 0.15377603 -0.033124577 0.090768166 0.021731744 0.20900929 0.1747059 -0.13083832
-0.09237798 0.1773244 -0.003256206 -0.26804033 0.09464334 0.08966424 0.0093514575 -0.03759814
0.17546645 -0.079612106 0.13370976 -0.33454213 -0.3752692 0.069909066 0.025385726 -0.17158395
0.11961653 0.12835354 0.079830684 0.110962324 -0.095409214 -0.05337055 -0.46293026 0.18220477
0.02238052 0.008774028 0.04341051 -0.1361299 0.10512443 0.2952405 -0.043426055 -0.18452026
-0.059262704 0.022068316 -0.18743649 -0.12942827 -0.03947106 0.14729288 -0.26084843 0.019587034
0.24118283 0.05803585 0.26008767 0.03801033 0.07435915 0.07185892 -0.037687752 -0.12617962
0.3122611 -0.15003012 -0.04948711 0.15682164 0.0026283844 -0.1684946 0.00542795 0.12865111
-0.22225712 -0.13718466 -0.016100816 0.2114959 0.054255005 -0.16804303 0.1681002 -0.2892325
0.20092972 0.20774029 0.016584285 -0.20219742 0.00066993036 -0.10702484 0.19156152 -0.122151166
0.055669714 0.14747769 -0.26243234 0.14524974 0.12827963 0.05550282 0.096158296 -0.23140341
-0.027268572 -0.2062097 0.30254284 -0.009220996 0.29302126 -0.13487563 -0.20244858 0.0015000363
0.14009152 0.15214707 -0.13737407 0.1687114 -0.08725509 -0.1589708 0.17996418 0.23277582
-0.17464682 0.23295338 0.05411891 -0.035799302 -0.04553396 -0.045643654 0.18929273 -0.22052783
0.033332333 0.099405736 -0.062851086 -0.16397148 0.08039822 0.0038919493 -0.19591793 0.22363864
0.21062283 -0.30106378 -0.08188159 0.13345422 -0.13638021 0.07052063 0.021197433 -0.18854381

encoder.weight_hh_l0 f4 [256, 64]
00000000: 2fb6 4fbe b06d 493d adbe cbbd ce17 2abf
00000010: d9a4 fb3d 765b dcbe 9679 e43d d251 f73d
00000020: 5ca8 a5bd a1e0 0e3f c609 f5bd 1368 663d
00000030: fd69 753d ce44 f1bb 7c9c febd 361d e93d
00000040: b597 ce3d febf 2f3e afcb 8dbd 3c4c e1bd
00000050: 1b4c bb3d 51c3 26be a048 dbbd c9f5 953e
00000060: 5926 bc3d 1657 c8be a24c a33c 531f 36be
00000070: 08e7 0b3e 331e 7c3d a4b5 393e 8d59 28bd
00000080: 4d4f 233d 4715 c93d dcf8 8b3c 13d0 753e
00000090: ef84 edbc 09fc cfbd 3c49 953d e038 353e
000000a0: 6551 37bd 8f45 ccbd 6ef1 053d 0a9b 26be
000000b0: 2031 093e b53c 223e 7af1 ec3d 6601 62be
000000c0: a9ea 21bd 34c2 a4bd 8866 1d3e 4bb8 633d
000000d0: 9603 3bbe 708b a0bd 9078 46bd b7d2 383e
000000e0: 024c dc3c a265 843e c12a c9bd fc3e 31bd
000000f0: 4411 32bd 9f8c 333e e80c cc3c da21 5ebe
00000100: 041b 4d3d b448 a0be 97d9 31be 4b88 02bf
00000110: 81ea 27be 0a5c 2dbe 34ea a73d bd9b 393e
00000120: 80d2 a4be 5a8c 8c3c f172 debd ee87 bbbd
00000130: c1a4 953c 1701 4ebe dfc5 c0be fb61 373e
00000140: 2159 a13e 06db df3d 797b 373e e70d 6f3e
00000150: 0e87 623e c37c ccbd c2ad 763d 1494 96bc
00000160: b355 e13d 3862 c4be 91dd a8bd a9b3 09be
00000170: 175e 133f 6b5f 26be f1cb 183e 51c2 f13e
00000180: 38e8 4f3e 6006 ea3d 0fe7 55be 517d 1abd
00000190: 026c d73d 5888 893d 690a 053d 750e b93e
000001a0: cc1d 5abe bc6e 893d a082 6fbe e8a2 193e
000001b0: 5884 84be 13cb 7bbc 78d4 2ebe 095b 7ebe
000001c0: 5fb2 67bd db31 133e e47d d9bc a200 03be
000001d0: 2bef cbbe 8295 02be 5969 c4be ffa9 e13d
000001e0: c110 e0bd fb23 ed3d 3143 a0be 3b81 eabe
000001f0: 252c 31bf 29c9 6b3e 278d 533d 8798 99bd
00000200: 5213 813d 228e c93d 63cb 4cbf bbc4 13bf
00000210: 2b57 903d c001 82bd 4431 d1bc 6764 bf3c
00000220: 5b2c 98bd 0a3d a43e 58a6 5cbd bdbb be3d
00000230: 9acb ac3d 3f4b 47bd 4d0d 7bbd e59f 5d3a
00000240: 3268 1c3e 63ca a03e fd00 ca3d 6622 a73d
00000250: a53d d7bc c5c8 3fbe f867 973d de8d cebb
00000260: 8a46 313e a557 98be bc9f 8c3d 5ce8 03be
00000270: 0993 ad3e 24a2 55bd 511c 263e 290e d13d
00000280: c68e 793e 8558 47bb d85a fdbd efb0 013d
00000290: 1c2f d63d 4f70 c4bd 1b06 e13c 0075 8a3e
000002a0: 6e87 84be 0b03 d8bc 3e20 b6bc bf21 bb3d
000002b0: 8f94 bebd 890d 2d3e cd61 553e 446c 17be
000002c0: 0710 59bd b084 243d 648a 763e 3488 04be
000002d0: ef5b 0bbe cc39 9cbd 26ef 8cbd a4c8 a43d
000002e0: 334f 20bd debf cc3d 5bfd 03be cc78 d1bb
000002f0: 4eea 38be aeb1 213e 65f2 913d a7f6 0cbe
00000300: 7560 87bd c193 58be e316 23be 3bd2 d4bf
00000310: 209f 45be 2fca de3e d053 883e 9322 243e
00000320: 74c0 00bd b061 263f c4d8 8ebe f4d7 cfbe
00000330: 50d4 b93b a6da 86be 1d86 19be 15b5 0dbf
00000340: 80ab 263e cd12 2f3e f383 f93d 3a18 9c3e
00000350: bb86 b23e 2e3f a93d a2fd 4f3d b735 e83d
00000360: 6c9b ab3d de80 c73c 1f46 42bd 5985 6ebe
00000370: e36e e33e 4ef9 23bd 3e46 083f 3d1e d6bc
00000380: 7da4 9c3b b962 97bd 936f 1a3f e891 cc3d
00000390: 353b 56be 26b9 d33e 1bf2 823b c59c fe3e
000003a0: b1d7 21be 2187 003e 4df8 29be 26ea 4ebe
000003b0: 4c44 183e 5482 42bf 99b6 1ebd f0b2 013c
000003c0: a427 c8bc abf6 5dbf 50f9 0b3e 6971 33bd
000003d0: 1f92 30bd 101e 1abd dad5 e8be 0c2e 883d
000003e0: 9489 2cbe eb6d 28be 75c7 183e 0ed3 92be
000003f0: 5bf7 a93d bf94 d5bd 4f20 69be 2b91 033f
-0.20284341 0.04917687 -0.09948478 -0.66442573 0.122873016 -0.4303853 0.11156003 0.12076153
-0.080887526 0.55811507 -0.11964755 0.056251597 0.05991553 -0.0073629385 -0.12432191 0.11382525
0.100875296 0.17163083 -0.06923615 -0.11000869 0.09145375 -0.16285445 -0.107072115 0.29289082
0.09187002 -0.3912894 0.019934002 -0.17785387 0.1366235 0.061552238 0.18135697 -0.041101027
0.03987055 0.098185115 0.017086439 0.24005155 -0.028994052 -0.10155494 0.07289359 0.17697477
-0.04475536 -0.09974205 0.03270095 -0.1627008 0.13397646 0.1584347 0.115694955 -0.22070846
-0.03953043 -0.08044854 0.15371144 0.055595677 -0.18263087 -0.078390956 -0.04845482 0.18049131
0.026891712 0.2585879 -0.09822608 -0.043272957 -0.043473497 0.17534111 0.024908498 -0.21692601
0.050074592 -0.31305468 -0.1736816 -0.50989217 -0.1639805 -0.16929641 0.081989676 0.18125816
-0.3219185 0.017156769 -0.10861767 -0.09156786 0.018267037 -0.20117603 -0.37650964 0.1790847
0.31513312 0.10930447 0.17918195 0.23345147 0.22121832 -0.09984734 0.060224302 -0.018381156
0.11002674 -0.38356185 -0.082453854 -0.13447441 0.57565445 -0.16247337 0.14921547 0.47218564
0.20303428 0.11426997 -0.20888923 -0.037717167 0.10518648 0.06715459 0.03248063 0.36143842
-0.21300429 0.06710574 -0.23389673 0.1500355 -0.2588222 -0.015368241 -0.17073238 -0.24839415
-0.056566592 0.14374487 -0.026549287 -0.1279321 -0.39830908 -0.12752345 -0.38361624 0.11018752
-0.109406956 0.11579128 -0.31301263 -0.4580172 -0.69207984 0.23025955 0.051648285 -0.074997954
0.06302513 0.09841563 -0.79997844 -0.5772206 0.07047876 -0.0634799 -0.025536187 0.023363305
-0.07430335 0.3207782 -0.053869575 0.09313152 0.084372714 -0.048655745 -0.06129198 0.0008454307
0.15274122 0.3140441 0.0986347 0.08160858 -0.026274512 -0.18728931 0.07392877 -0.006303533
0.17312065 -0.29754367 0.068664044 -0.12881607 0.3390124 -0.052156582 0.1622174 0.10207779
0.2437087 -0.0030417752 -0.12370843 0.031662878 0.10458204 -0.09591734 0.027468732 0.2704239
-0.25884575 -0.026368639 -0.022232171 0.09137296 -0.09305679 0.16899695 0.2083809 -0.14787394
-0.0529938 0.040165603 0.2407623 -0.12942582 -0.13609289 -0.076282114 -0.068815514 0.08046082
-0.03913803 0.09997533 -0.12889616 -0.006392574 -0.1805813 0.15790436 0.07126311 -0.13765965
-0.066101946 -0.21150114 -0.159267 -1.6626657 -0.19298983 0.4351363 0.26626444 0.16028814
-0.031433538 0.6499281 -0.27899754 -0.40594447 0.0056710616 -0.2633869 -0.14992566 -0.55354434
0.1627636 0.17097016 0.121833704 0.30487233 0.34868416 0.08264004 0.050778992 0.1133837
0.08379254 0.02435344 -0.047430154 -0.23293056 0.44420537 -0.040032677 0.5323218 -0.026137466
0.0047803507 -0.07391877 0.603265 0.09988767 -0.20921023 0.41352195 0.0039961464 0.4972898
-0.15804936 0.12551548 -0.16598625 -0.20206508 0.14869803 -0.75980115 -0.038748357 0.007916197
-0.024432965 -0.8670451 0.13669324 -0.04380933 -0.043108102 -0.037626326 -0.45475656 0.06649408
-0.16849357 -0.1644818 0.14919837 -0.28676647 0.082991324 -0.10428762 -0.22766231 0.51393384

encoder.bias_ih_l0 f4 [256]
00000000: 34f6 85be 0e47 afbe feea 17be 2388 033d
00000010: 711d 57be 846d 9dbe b306 abbe 36b7 95be
00000020: 9165 babe 0784 143e f9cb a2bd 5dce 82be
00000030: 3544 32be e178 1ebe c21d e9be f5fa 2ebc
00000040: 1110 7abe 12a9 32bd f366 b1be 964d d7be
00000050: 1d55 2abe 635d 57be e622 16be 08f5 83be
00000060: d2e4 bfbe ecb8 4ebe c66e 33be 3a78 83be
00000070: a664 41be 0477 87be 8d92 04bd b261 ca3d
00000080: 4a49 81be 4fce 78be 942c a0be 2b86 8bbe
00000090: a6be 90be 55a4 8fbe 3553 39be a779 6b3e
000000a0: d09a 4dbe 69a9 b5be 870f a4be e3ac 87be
000000b0: c185 8fbd 9aad 87be c9ca 2abe 4d1a 68be
000000c0: 11fb dbbd 6bbf 50be 6a25 91be 06d9 85be
000000d0: 8bd1 6f3e e156 fc3d 661d 0bbe e49a 26be
000000e0: bad5 2bbe 571d 103f b693 8cbe e68f e13c
000000f0: a2e1 3ebe 021e 0fbe a992 7ebe b812 103f
00000100: 9388 c63e 7e4a 1d3d 2ded e43e c49b a73e
00000110: 0ae5 6c3d 1a9f a73e 1a51 873e 6492 513e
00000120: 47e3 343e 319b ff3e 5779 eb3e 73bf a03e
00000130: e3fb 5b3e 76d4 a43e f983 133e 3529 32be
00000140: e995 c23e f857 0e3f cb7f 823e 38b3 633e
00000150: d7df 7c3e 2b31 e43e 5bba ba3e 774a e33e
00000160: 8480 cc3e dccd 5c3e 35ec 6e3e e636 ba3e
00000170: cf32 053f 40f8 8c3e b650 ac3e be1b 55be
00000180: 5a7c af3e 5507 633e e3f7 0e3e 2b6f 5f3e
00000190: e0be 333e 3f1d d53e 0458 9f3e 6cbd fe3e
000001a0: ce0c 9b3e ed39 ba3e a174 ac3e f887 1b3e
000001b0: 997c 6bbe 9a41 db3e 061d ba3e df3d a63e
000001c0: bbc1 563e 9658 c93e e0a1 d73e fb9e e93e
000001d0: 4d84 59be f09e b3bd 1867 063f 6b7a 273e
000001e0: 4ca6 aabe 2076 b83e 3095 973e ff6c 84be
000001f0: e3e2 c23e f12f c13e 6b8f f13e 703f b83e
00000200: 48c8 24bd b05e 1f3d 030e 393e 72f8 343f
00000210: 8238 19bd db54 453f 559e f1bc 070f 56be
00000220: 32a0 113e ac0b 50bf b31c 1a3f bcf4 0bbe
00000230: bfce 163e 443c 0ebd 1034 363e dfd3 21be
00000240: bedf 9bbe 76eb 08bf 6b27 d9bd 9a19 2cbe
00000250: c3d9 93be cacd 263e b93b 74bc ce0c 4ebe
00000260: 097c 1fbf 70e7 d83e 0099 86bc 9c8d 1d3e
00000270: c36a bdbe 2a17 023c 6e73 12bf d525 6d3e
00000280: 3dbf ccbe 17ca 01be 37bd fcbc f4b9 2abe
00000290: 258c a63d 74ac 023e 7ec4 1dbf 0779 50be
000002a0: fc5a 623e 4a1f 123b b090 c03d ab5f 39be
000002b0: a424 f2bc 21d0 03bd b43a a2be 4e16 1d3f
000002c0: bf04 923d ebb4 c33c 7620 06bf 9e41 d53c
000002d0: e4a2 e6be 941a 043f edda 003f d8b4 9dbe
000002e0: 9169 613d 6c73 113f 1c6d a6bb ed66 3f3e
000002f0: 047c c73d 7969 02bf 168d 1d3e 44ea 85bf
00000300: 7b19 aabe c58c 08be 8ac2 0e3d 7e85 bebd
00000310: e9ce d0bd 402c 0abe 5ec7 3f3d 489a a63d
00000320: bc2a 0fbd ef94 3a3d 06ca 9e3e ff4b 19bd
00000330: db5a 893c b41c 48bd fbc1 2b3e be90 6c3e
00000340: 641d 383d 494e 653e 3884 9cbd 1d1c 0e3d
00000350: 1001 0dbd 0f13 013e c904 703d e46e f83d
00000360: 5eac 853e dd97 2fbd 79ec c1bd ed90 16bd
00000370: cabd 1e3e 3028 753d 55de 353e 5900 8bbe
00000380: 1969 0bbc a0d9 5dbe 61b4 ef3a d5bf 72bd
00000390: 8a17 64be 3b3c 8bbd a3e8 853d 5978 1b3e
000003a0: e570 07be 3163 aa3e fb01 9cbe 5bc8 b33d
000003b0: 918e 9f3b 404a 51be ed77 8d3e 5dac 7b3e
000003c0: b2fd 273a d9c9 953e 140a 373e 27ab cfbd
000003d0: 4c23 b83a a1c1 08be 0b18 ac3e 1884 2ebd
000003e0: 2513 1f3e 055c ce3e a0f8 da3d b931 e9bd
000003f0: a181 be3e 0169 efbc 49ce 97be 52ec 9a3e
-0.261644 -0.34233898 -0.14835736 0.032112252 -0.21007325 -0.30747616 -0.3340355 -0.2924134
-0.36405614 0.1450349 -0.07949061 -0.25548068 -0.17408831 -0.15475799 -0.45530516 -0.01067995
-0.24420191 -0.04361827 -0.34648857 -0.4205138 -0.1663403 -0.21031718 -0.1466175 -0.25772882
-0.37479264 -0.2018773 -0.17522725 -0.25677663 -0.1888605 -0.2645799 -0.032366324 0.09881915
-0.25251228 -0.2429745 -0.3128401 -0.272508 -0.28270453 -0.28055063 -0.18098147 0.22995625
-0.20078588 -0.35480812 -0.32043096 -0.2649909 -0.070079334 -0.26499635 -0.16678919 -0.22666283
-0.107412465 -0.2038552 -0.28348857 -0.26142138 0.23419778 0.12321258 -0.13585433 -0.16270024
-0.16780749 0.5629477 -0.27456445 0.027534436 -0.1864076 -0.13976291 -0.24860634 0.5627856
0.38776073 0.03840112 0.447122 0.32736027 0.057835616 0.32738572 0.26429063 0.20466
0.17664824 0.4992309 0.45991012 0.31396064 0.21482806 0.32193345 0.14405812 -0.17398532
0.38004997 0.5560298 0.25488123 0.22236335 0.24694763 0.44568762 0.36470303 0.4439275
0.399418 0.21562904 0.23332293 0.3637001 0.5203065 0.2753315 0.33655328 -0.20811364
0.3427456 0.22170766 0.13961749 0.21819751 0.17553282 0.41623875 0.31121838 0.49753892
0.30283207 0.3637232 0.3368273 0.15188587 -0.22996749 0.42823488 0.36350268 0.3246908
0.2097234 0.39325398 0.42115688 0.45629105 -0.21241875 -0.08770549 0.5250106 0.16355292
-0.3333 0.36027622 0.2960601 -0.25864407 0.38063726 0.3773189 0.47179732 0.359859
-0.040230066 0.03890866 0.18071751 0.706916 -0.037407406 0.77082604 -0.029494444 -0.2090417
0.14221266 -0.8126781 0.6020004 -0.13667578 0.14727305 -0.034725443 0.17793298 -0.15803479
-0.3044414 -0.53484285 -0.106032215 -0.16806641 -0.28877077 0.1628944 -0.014906817 -0.20122072
-0.6229864 0.42364073 -0.016430378 0.15386051 -0.36995515 0.007940093 -0.5720738 0.23158963
-0.39989653 -0.12674747 -0.030851943 -0.16672498 0.08132199 0.12761098 -0.6162795 -0.20358668
0.2210502 0.0022296482 0.09402597 -0.181029 -0.029558487 -0.03218091 -0.31685412 0.6136216
0.071298115 0.02388998 -0.5239328 0.026032265 -0.4504615 0.51603055 0.50334054 -0.30802035
0.055032317 0.56816745 -0.005078925 0.18691607 0.09740451 -0.5094219 0.15385851 -1.0462117
-0.33222565 -0.1333495 0.034853496 -0.09302805 -0.10195715 -0.13493443 0.04682099 0.081348956
-0.034952864 0.04555219 0.31013507 -0.03742599 0.016766956 -0.0488555 0.16773216 0.2310209
0.044949904 0.22393145 -0.07642406 0.03469478 -0.03442484 0.12604927 0.058598313 0.12130526
0.26108068 -0.042869437 -0.09468932 -0.036759306 0.15502086 0.05985278 0.17760594 -0.27148703
-0.008508944 -0.21665049 0.001828801 -0.059264977 -0.22274604 -0.067985974 0.065385126 0.15182628
-0.1322666 0.33278802 -0.3047026 0.08778449 0.00486929 -0.2043848 0.2763056 0.2457747
0.0006408348 0.2925556 0.17874938 -0.101400666 0.0014048605 -0.13355114 0.33612093 -0.042606443
0.15534647 0.4030458 0.10691953 -0.11386437 0.37208274 -0.029224874 -0.2964957 0.30258423

encoder.bias_hh_l0 f4 [256]
00000000: 82cf b0be 5626 45be 1510 9dbe 4a3e c8bb
00000010: c797 eebd 445f 25be a8fc 42be c410 2dbe
00000020: f9ae 6cbe de88 0f3e efdc 5fbe c13d 98be
00000030: d506 96be 868a 5fbe dc3c 9abe 9fb9 0fbe
00000040: e696 69be c618 70be 1312 a8be 7c50 d5be
00000050: c459 7abe d4c1 98bd 7391 9cbe f99a 50be
00000060: a265 bfbe db3f 48be cfc4 58be 9881 83be
00000070: 7a02 87be b7ab a6be 9e86 4cbe a8f3 9d3d
00000080: 09a1 84be 9e19 68be 351f 39be a74d 81be
00000090: dc84 72be dc6f 3fbe 8347 9cbe e91c 633d
000000a0: 6263 41be 9335 fcbd f3b2 5bbe 04d7 87be
000000b0: e4ec 15bd d1be b3be de3e 4cbe 861d 82be
000000c0: 198e 22be 8454 27be dec2 a1be 33c4 64be
000000d0: 2c40 503e d14f 703e 98f0 10be 19e6 91be
000000e0: 6211 7cbc 440d 083f fd98 81be 55c2 023e
000000f0: f292 7fbe 8d15 5cbe 6014 aabe d7eb 443f
00000100: 3952 003f 455d 413e 9317 c03e 51dc cc3e
00000110: 034a 8d3d 743c 8d3e d0ef 613e 7bb5 4b3e
00000120: 7d76 0c3e 1906 b43e f1d8 a63e 9670 a43e
00000130: a5db 2c3e 12c2 7d3e 6eb3 073e 7cfc 20be
00000140: e0ae fe3e 53b9 f53e 979c 333e a764 853e
00000150: 5c0c a03e 707e 893e b496 fd3e 42ff 9a3e
00000160: 4628 dc3e 5876 c93e 2417 5b3e 60ea eb3e
00000170: 3e14 d13e 2a1e bd3e 499b ee3e a6f8 89be
00000180: 9f77 743e 18c6 633e bf40 673e 61c7 3e3e
00000190: faee db3d e586 c83e a262 523e 012e f43e
000001a0: 375f fb3e d2e4 f93d 8fed a53e 246b 563e
000001b0: cb84 35be 01fe d53e 41a6 803e 0d86 a53e
000001c0: 2531 643e a3f7 073f e753 b23e 5160 043f
000001d0: e2d3 c2bc 7dc3 4bbd 53fe 133f 3d64 4b3e
000001e0: f328 34be 4a7e 073f fc0c 7f3e 19c8 6dbe
000001f0: bafb bf3e 2ee1 cb3e efb5 de3e d1ea 863e
00000200: 9f54 3d3d 2eed 233e 39b9 893e 1683 273f
00000210: 623c f7bd fcf2 283f 3b9c 16be b300 88bc
00000220: cb2c cb3d 5a6e 5bbf 51d2 103f 0644 4bbd
00000230: 794d 6abc a528 b43c 9249 6e3e 7fd3 35be
00000240: aaf7 01be a39d 0fbf e81b 49be 232a 0bbe
00000250: b5b1 c4be 1a4c 953e d2e1 a13d 8eb9 49bc
00000260: 3258 25bf 56fc 803e 38c6 3f3e 5398 503e
00000270: 5dc9 afbe e6d7 88bd 6d62 0fbf 97c2 0e3e
00000280: 765c edbe 6274 cbbd 153b 71bc c16e 91be
00000290: 936c 6c3d 9a19 acbc 7158 40bf 5504 7abe
000002a0: 1157 4c3e 377d cb3c b64e d03d b314 81be
000002b0: 5838 c93c d062 88bd 25b7 47be 2c9e 003f
000002c0: de37 d43d c916 573e ff51 fcbe d03c 1f3e
000002d0: 8de4 c7be 2137 043f dc4e 053f 3bd7 4cbe
000002e0: c7a1 f73c 449e 343f b333 3a3e 2f57 703e
000002f0: 4c98 cd3d f1c9 27bf b71a 233d d1cd 8ebf
00000300: 6e96 89be 5612 3bbe 8021 1d3e 5446 54bd
00000310: 0b35 7abe f524 d4bd ccd7 8e3d 1c47 053d
00000320: b4da acbd 26f5 6bbd fddd 953e 46e7 8abd
00000330: 3e09 13bd 380e f33d 6ed1 493e b7a6 3c3e
00000340: b7dc 573e 5529 263e 7e37 6b3d 4894 1e3e
00000350: 01e0 313e 0c61 3e3e 7df8 48bd 79b8 f43d
00000360: 6eae ae3e cce9 383d fa61 18be d76d 0dbe
00000370: 3b47 993e 71fd ebbc 3285 383e 580b b3bd
00000380: 5702 3f3e bbec aebe 9132 d1bc ff5d cb3c
00000390: 88d2 36be 7ce2 cebd 2883 b9bd 0bb9 463d
000003a0: ee96 8abd c1a3 a43e f034 37be 2937 fb3d
000003b0: eb9f a0bd 0a54 11be a6a8 573e ef4c 823e
000003c0: 7aa6 11be b93d ad3e 12ce cd3c aa1d ddbd
000003d0: 9550 b53d b6f2 eebd f12f 6d3e ca8d c13d
000003e0: 970a 853d 5846 c63e 64b0 753d d092 333d
000003f0: a7e4 613e 1f89 0f3e 6538 aabe c9ed 7d3e
-0.34533316 -0.19252905 -0.30676332 -0.006110941 -0.11650043 -0.16149622 -0.19041693 -0.16900927
-0.23113622 0.14017054 -0.21861623 -0.29734614 -0.29302087 -0.21830186 -0.30124557 -0.14035653
-0.2281147 -0.2344695 -0.3282629 -0.41662967 -0.24448305 -0.07458845 -0.3057972 -0.20371617
-0.37382227 -0.19555609 -0.21168827 -0.2568481 -0.26369077 -0.32552883 -0.19973227 0.07712489
-0.2590411 -0.22666022 -0.18078311 -0.25254557 -0.23683494 -0.18695015 -0.3052331 0.055447493
-0.18885568 -0.12314906 -0.21454982 -0.2653123 -0.03660287 -0.3510652 -0.19945857 -0.2541315
-0.15874518 -0.16340834 -0.31593984 -0.22340469 0.2033698 0.23467948 -0.14154279 -0.28495863
-0.015385004 0.5314524 -0.25312033 0.12769444 -0.24958399 -0.21492596 -0.3321867 0.76922363
0.5012546 0.18883236 0.37517986 0.40011838 0.06898882 0.27585185 0.22064137 0.19893448
0.13717075 0.35160902 0.32587388 0.32117146 0.16880663 0.24781063 0.1325204 -0.15721315
0.49742794 0.47992954 0.17540203 0.26053354 0.3125943 0.26854277 0.4952904 0.3027287
0.42999476 0.39348102 0.21395546 0.4607725 0.40835756 0.36937076 0.46602848 -0.26947516
0.23873757 0.22243536 0.22583292 0.18630745 0.107389405 0.39165416 0.20545438 0.47691348
0.4909608 0.12201847 0.32407805 0.20939308 -0.17726438 0.41795352 0.25126842 0.32328835
0.22284372 0.5311224 0.34829637 0.5170947 -0.023782674 -0.04974698 0.5780994 0.19862457
-0.17593746 0.52927077 0.24907297 -0.23220862 0.3749674 0.39820236 0.4349818 0.26351026
0.04622328 0.16008446 0.26899126 0.65434396 -0.12072064 0.65995765 -0.14708035 -0.016601896
0.09920653 -0.8571526 0.5657092 -0.04962542 -0.0143006975 0.021992037 0.23270252 -0.1775646
-0.12692133 -0.5609991 -0.19639552 -0.13590293 -0.3841683 0.29159623 0.079044 -0.012312306
-0.645877 0.25192517 0.18727958 0.20370607 -0.34333315 -0.06681804 -0.5600956 0.13941418
-0.46359605 -0.09934308 -0.014723559 -0.2840481 0.057720732 -0.021008302 -0.7513495 -0.24415715
0.19955088 0.02483998 0.10171263 -0.25211105 0.024563 -0.06659472 -0.19503458 0.5024135
0.10362218 0.21004786 -0.49281308 0.15550542 -0.39041558 0.5164662 0.52073455 -0.20003979
0.030228509 0.70553994 0.18183784 0.23470758 0.10038814 -0.65542513 0.0398204 -1.115656
-0.2687258 -0.18268713 0.1534481 -0.051824883 -0.24434297 -0.103586115 0.06974754 0.03253852
-0.08440152 -0.05760684 0.29270926 -0.06782393 -0.035897486 0.118679464 0.19708797 0.18422972
0.2108029 0.16226704 0.05742597 0.15486252 0.17370607 0.18591708 -0.049065102 0.11949248
0.34117454 0.04514484 -0.14881125 -0.13811432 0.29937157 -0.028807374 0.1801956 -0.08742398
0.18653236 -0.34164986 -0.025536807 0.024825094 -0.17853749 -0.10101792 -0.09058219 0.048516314
-0.06767069 0.32156184 -0.17891288 0.1226638 -0.07843002 -0.14192215 0.21060428 0.2544932
-0.14223662 0.33836153 0.025122676 -0.107966736 0.088532604 -0.11667387 0.2316282 0.09450872
0.064961605 0.38725543 0.059982672 0.043841183 0.2205988 0.14017151 -0.3324615 0.24797739

out_layer.weight f4 [256, 64]
00000000: 097b f83e 5232 ff3e 0a6a 24be c0f2 9f3d
00000010: 146d 3e3f 7379 30bf b772 853e f6a4 053f
00000020: 9720 b33e f96b 0f3d 6737 133e fbe5 003e
00000030: ebdb ba3e 6907 2bbf 0621 5c3e a319 60bd
00000040: 94c6 20bf 0b47 0f3f dc71 92bf 570c 2c3e
00000050: e018 1e3f 23a9 933d 2a66 823e b265 a33f
00000060: 71f3 2fbf 08ba 533d 605d 53bf a933 49bf
00000070: 6132 c1be 5ca6 6bbf ab0f 52bd f0f0 973d
00000080: a68f 643d 719a aa3e cd1d 73bd 78df 96be
00000090: 3d7a 8f3d c08c 59bf 3318 6b3e b8b8 e93d
000000a0: 7ac0 273e ebd5 103f 9a66 2f3e ae46 acbe
000000b0: 6b17 0e3e ff7f acbf 1120 52be 1c04 c3be
000000c0: df26 cebd c05e b4be f32b 9bbe 83f2 9cbf
000000d0: 043b 09be 0b0e 0f3e 9ed5 29bf 1033 d4bd
000000e0: da03 833d a033 89be e697 293f 1f6e bcbd
000000f0: 961e 89be 1a7d 83be 5219 a43e ffe4 ea3e
00000100: 050f a03e 0cfd 0e3e 2036 c0bd 6ae5 51be
00000110: a124 3e3e 02ee c73d 80d3 6c3d 2985 97bd
00000120: 6f79 eabd 0396 3f3e 7a1a 3e3e c7dc 023a
00000130: 96e3 18bd 786d 463d 053c ed39 2646 58be
00000140: 50dd 30be 44a0 c93c ed18 d03c e905 263b
00000150: f7d5 e3bc 5702 d6bd d055 c4bd af1b 08be
00000160: 6f01 033d cabd a5bd 0922 223d 8c19 943d
00000170: 2c60 d53d f1f1 bc3d e8de 93be ec3a 6fbd
00000180: c51f e53c 6079 af3d 07d5 be3c 6339 4a3c
00000190: 4dd0 d7bc 964b 48be 8454 33be 0900 c6bd
000001a0: 9aa8 0bbd 9140 e53d 34a4 0a3e 1f06 913e
000001b0: a48d 323c d176 0b3e 247e 553e 4708 8cbd
000001c0: af10 1d3e 89f5 9cbb 3300 58be 78f2 c3bd
000001d0: dbdb 20bd 8afb 50bd 972e 18bd 8ee4 833e
000001e0: 4799 3fbd c79c 1fbc d709 88bd 71ee 373e
000001f0: 1696 8bbd 73c1 e53d 5a46 c2bc 1314 27bc
00000200: 0aa4 893e d5b8 863d 79a7 f9be 4bd5 60bd
00000210: 3261 2b3e 3ca1 9bbe 9aa1 18be 466c 0b3e
00000220: ae59 87bd 6960 0c3e daa4 303d fd0c d6bd
00000230: f0e4 243f 6b0f e8be 371b a03e a273 05bc
00000240: 61bf a0be 8129 173f ee54 443f fcbc 92bc
00000250: 04c3 aebd 0526 423f 8eca 5cbf 7858 25be
00000260: fd6e fdbb aaf9 25bd adf6 eabd 9156 553f
00000270: f3ad d0be 8133 f43e ea95 893e aba9 5dbe
00000280: 5df6 983e 07e3 163e 861c 8bbe 9b7f ba3d
00000290: bdbe 9a3e 7894 efbe a164 78be dd60 5a3d
000002a0: 758e ccbe 42db 06bf 032b d0be 2444 253e
000002b0: eaf3 6ebe 6735 23bf 85c7 f33e 0049 0a3e
000002c0: aef8 bfbf cb20 083e a9fe c03d 3667 51bf
000002d0: 7fa4 88bd a011 943e 2b96 b73d cc1f 753d
000002e0: 8daf a23e 68e8 b8be ef92 65bf 420b 943e
000002f0: d70a 0d3e 9444 d2bd 5f3a 70bf da3c 0e3f
00000300: 3121 de3b 3db7 193f a6d5 2bbe e631 2cbe
00000310: 3eb9 c0be 1f32 0e3e df56 82bc 7da8 58bd
00000320: 0f99 f8be 2c2b 3fbe 5d0c 3dbc b79b d23d
00000330: db89 d6bd 7b09 17be 4460 7fbf 32e1 e93e
00000340: 52cc dbbe ebd9 fbbc ad52 02bd 3264 3d3d
00000350: eedb f7bc 1052 80be 0d27 39be 1a0d 113e
00000360: 77eb 56be 7ad5 2abe 15d0 cfbc 6174 79bc
00000370: cee9 a5be 1414 e23e 875a 743e 2d89 bf3d
00000380: 6633 513e 3348 af3e 3696 093f 19b5 2cbf
00000390: 5d6b d73e 7772 a93d 8860 cd3e 6d3e c8bd
000003a0: f043 53be e2c9 45be d7e6 b23e ddd0 743e
000003b0: 2651 f13d bb30 e63d 3ef9 373e 319e 13bf
000003c0: a8a9 86bd bccf a0be 9743 11be 7608 b8bd
000003d0: cf57 313a 23af 13bd d820 c13e 3957 23be
000003e0: ad92 683e 7f61 c83c 7fb2 25be 0403 02bf
000003f0: 276f 3a3e 5ed5 26bd e097 05be 66f4 acbd
0.48531368 0.4984308 -0.16056076 0.07809973 0.7438519 -0.68935317 0.26064083 0.52204835
0.34985802 0.03501508 0.14376603 0.1258773 0.3649591 -0.6680818 0.21496972 -0.05471195
-0.62803006 0.5596778 -1.1440997 0.16801582 0.61756706 0.07209995 0.2546857 1.276541
-0.6873084 0.051691085 -0.82564354 -0.7859445 -0.3773375 -0.9205072 -0.051284473 0.07419002
0.055801056 0.33320954 -0.059354592 -0.29467368 0.07005737 -0.8498039 0.2295845 0.114121854
0.16382018 0.5657641 0.17128983 -0.33647674 0.13876121 -1.3476561 -0.20520045 -0.38089073
-0.10066008 -0.3522854 -0.30306968 -1.2261509 -0.13401419 0.139702 -0.6634158 -0.10361302
0.06397219 -0.267972 0.66247404 -0.092006914 -0.26781148 -0.25681382 0.32050568 0.45877835
0.3126146 0.13963717 -0.093853235 -0.20497671 0.1856866 0.09762193 0.05781889 -0.07398445
-0.11448943 0.18709569 0.18564788 0.0004992005 -0.037326418 0.04844424 0.0004524888 -0.2112051
-0.17271924 0.024612553 0.02540251 0.0025333113 -0.027811987 -0.10449665 -0.0958668 -0.1329181
0.03198379 -0.0809284 0.03958324 0.07231435 0.10418734 0.09225834 -0.28881 -0.0584058
0.02796925 0.08568072 0.023294939 0.012342784 -0.026344443 -0.19560084 -0.17512709 -0.096679755
-0.034096338 0.11193956 0.13539201 0.28324983 0.010898028 0.13619544 0.208489 -0.06837516
0.15338396 -0.0047900123 -0.21093826 -0.095677316 -0.03927217 -0.051021136 -0.037153807 0.2576031
-0.046777036 -0.0097419685 -0.06642502 0.17962052 -0.06815736 0.11218538 -0.023715187 -0.010197657
0.26882964 0.06578223 -0.48760584 -0.054890912 0.16736296 -0.3039645 -0.14905396 0.13615522
-0.06608902 0.13708653 0.043125965 -0.10451696 0.6441183 -0.45324263 0.31270763 -0.008145245
-0.3139601 0.59047705 0.7669209 -0.01791238 -0.0853329 0.75839263 -0.86246574 -0.1614703
-0.007734178 -0.0405213 -0.11472831 0.83335215 -0.40757713 0.47695544 0.26872188 -0.21646754
0.2987546 0.14735042 -0.271702 0.0910637 0.30223647 -0.4679296 -0.24257137 0.053315032
-0.39952436 -0.5267831 -0.40657815 0.16139275 -0.23335233 -0.6375336 0.4761316 0.1350441
-1.4997766 0.1329376 0.094235726 -0.8179811 -0.06672 0.28919697 0.08964189 0.059844777
0.3177456 -0.36114812 -0.8967733 0.2891484 0.13773666 -0.102669865 -0.9383907 0.555616
0.006778859 0.60045224 -0.16780719 -0.1681591 -0.3764133 0.13886307 -0.015910564 -0.052895058
-0.48554274 -0.18668813 -0.011538592 0.102836065 -0.104755126 -0.1474971 -0.99756265 0.45679623
-0.42929322 -0.03074356 -0.031817127 0.04623813 -0.030256238 -0.2506261 -0.18081303 0.14165154
-0.2098826 -0.16682997 -0.025367776 -0.015225501 -0.3240494 0.44155943 0.23862658 0.09352336
0.20429763 0.3423477 0.5374483 -0.67463833 0.420741 0.082737856 0.4011271 -0.09777532
-0.20631385 -0.19315293 0.34941742 0.239078 0.11783056 0.11239763 0.17966172 -0.57663256
-0.06575328 -0.3140849 -0.1418594 -0.08985989 0.00067650987 -0.036055695 0.3772037 -0.15951242
0.22712202 0.024460552 -0.16181372 -0.5078585 0.18206464 -0.040730827 -0.13046217 -0.08445053

out_layer.bias f4 [256]
00000000: 6f9e d83c 6c27 febc 07d5 ecbd 22b3 d9bd
00000010: ef78 ebbd 828b 513d cf61 84bd ce2a dd3d
00000020: f245 e5bd e3e2 debc 11cc f93c 3b30 ee3c
00000030: 9c8d 3abe d633 63be 46a7 e83d e0a2 f73c
00000040: 8d66 54bd 1d32 b1bd 98fc 383d 2b75 45be
00000050: 3282 35be 0c53 2b3c d220 323c b621 84bd
00000060: 0d1d 80bd e7d5 c83d 7f42 2a3d e95a 153d
00000070: 25f4 7cbd b966 a73d 1403 adbd 1b57 19bd
00000080: 7c83 683c 6fbf 953d 96d2 793d 519f 133d
00000090: 1d79 a43d 1a33 f4bc a0bf 02bc c0c4 663c
000000a0: 8d93 933d 9294 d5bd 8fc7 c1bb 0055 b7bd
000000b0: f2b3 8dbc 9d5b 543e 8b0a 143d 77eb 59bd
000000c0: 2e49 d93d 6191 1a3d b3df 1cbe 45b0 ba3c
000000d0: fa6d f43b d6e8 cbbd dbb5 1fbe 0c90 41bd
000000e0: 01d6 973d 2e47 00bd 0856 8c3c 4277 5ebd
000000f0: b1d0 263d 0ba1 0f3d 5a92 2ebd 3460 07bd
00000100: 97b1 89bd f0ed 843d 3ca7 17be 02ba 883d
00000110: 88f8 6a3e 8367 2c3c 1938 2b3d 61f3 463d
00000120: 3815 1e3b a934 10bc 71cc 313c 00e2 37bc
00000130: 6d46 8d3d 4d7f ab3d 6436 7a3c 5abf d7bc
00000140: 0238 02bc f9fa e43c 5bc6 093d e75a 98bc
00000150: 02e0 cd3d 8bd5 213e 403b d7bc d5ef 9fbd
00000160: 95ba e13d 8c69 513c b667 a83c 6b57 f73b
00000170: 350d 85bd 35a8 f33d 8ac1 5fbb cfcd b8bd
00000180: da6d 89bd 1774 05be 3391 8e3c 657a 613d
00000190: bb0e 3abd 5e04 88bd d7f8 44bc 50a8 303d
000001a0: 3415 b1bc dbdd 5b3d d3af 2ebe 8e1b 153d
000001b0: 33b4 9ebc c953 d7bd 7a43 bcbd 3604 4dbd
000001c0: 7b5f 9dbd fefc 8b3d 6bcb 1ebd 1365 ae3c
000001d0: 661d f6bd de9d 9c3d 0b6b 28be d1f3 233d
000001e0: 0b60 1cbe 444a a7bd 462d 183c e13a d7bb
000001f0: 5e6f 6dbc 2e10 ab3c 8ae0 63bc a1d7 063c
00000200: 2a5b 27bf a1c6 5d3e 8c08 3ebf 98fe 5b3e
00000210: 33e3 673e ba35 623e 9605 683e 27f7 773e
00000220: ecd7 5c3e 1cbf 5f3e fd7e 743e a11d 7f3e
00000230: 3df1 44bf 77f0 17be 9a38 683e f730 703e
00000240: 6897 583e f953 5a3e 01e3 773e c734 2e3e
00000250: 01ea 4cbf 2b81 453e 180d 07bf a9e1 16bf
00000260: 259e 5b3e 773e 553e 083c 723e f671 5e3e
00000270: 09c8 593e ef90 5d3e 8760 693e b9b0 683e
00000280: d90f 273e 6a73 603e 4143 723e 5c58 6b3e
00000290: 7f75 5d3e 7f3b 713e 314f 643e 188e 783e
000002a0: a8e1 7a3e e1f4 603e fe66 97be 5c0f 623e
000002b0: c8ee 7f3e 6aad edbe e88d 5d3e c5b5 5e3e
000002c0: 69ce 5b3e 199c 123e 056c 423e d8f2 6a3e
000002d0: e293 643e ecde 51bf b5e3 483e 166a 7b3e
000002e0: 06fb 5a3e 3a54 6c3e 03cc 503e f8de 7e3e
000002f0: 63f3 5a3e 8314 723e 6359 5b3e 7643 743e
00000300: 7837 693e 4b8a 653e 0d9a 343e 1e21 643e
00000310: 744d 14be aac3 08bf 937d 5e3e 2d58 753e
00000320: 418f 5f3e 60f9 343e 90c9 38bf 2027 5b3e
00000330: 1446 363e b686 1abf b95e 6d3e 4404 613e
00000340: 4355 803e 2638 12bf 6cbd 823e d5b1 debe
00000350: 366a cabe 4919 393e d35c 693e d174 773e
00000360: af8a b7be c8fe 41bf 68bc 6b3e 2b69 603e
00000370: c834 683e bc18 c9be 609e 32bf 756b 703e
00000380: 6ac3 5c3e c6cd 42bf 4129 1bbf bf79 833e
00000390: 6826 b9be 32bd 5c3e c681 683e 6fa8 663e
000003a0: e01a 663e 15eb 08bf 978c 3f3e 5bfa 343e
000003b0: e43c 24bf 1047 6f3e a6da 2abf 308d 5e3e
000003c0: 6b4e 6b3e e431 653e cf92 f5be 5352 6b3e
000003d0: bcad 32bf 9927 763e c4c2 a13d 20cb 6a3e
000003e0: 910f 4c3e 7eca 633e 5441 33bf 29e2 18bf
000003f0: 16e3 673e a1ff a3bd f2d8 5c3e 6948 6d3e
0.026442735 -0.031024657 -0.11564069 -0.1062987 -0.114976756 0.051158436 -0.06463968 0.1079918
-0.11194982 -0.027207797 0.030492814 0.029075732 -0.18218082 -0.22187743 0.1136003 0.030229032
-0.051855613 -0.086521365 0.045162767 -0.19282977 -0.17725447 0.010456812 0.010872083 -0.06451742
-0.06255541 0.09806424 0.041567322 0.03646365 -0.061756272 0.0817389 -0.08447853 -0.037436586
0.014191505 0.07311904 0.060991846 0.036040608 0.08030913 -0.029809523 -0.007980257 0.014084995
0.072058775 -0.10428728 -0.005913682 -0.08951759 -0.017297719 0.20738073 0.036142867 -0.053203072
0.10609661 0.0377363 -0.1531971 0.02278913 0.0074593993 -0.09956519 -0.15596716 -0.047256514
0.07413865 -0.031317882 0.017130867 -0.054312952 0.040726367 0.035065692 -0.04262004 -0.03305073
-0.06723326 0.064906955 -0.14809889 0.06676103 0.2294637 0.010522726 0.041801546 0.048571948
0.0024121534 -0.008801618 0.010851965 -0.011223316 0.06898198 0.0837389 0.015271757 -0.02633636
-0.007947924 0.027951704 0.033636432 -0.018598033 0.10052492 0.15804116 -0.02627337 -0.07809416
0.11021916 0.012781512 0.020557266 0.007548263 -0.0649666 0.11897317 -0.0034142458 -0.0902363
-0.06710406 -0.13032566 0.01740322 0.055048365 -0.045424204 -0.06641458 -0.012022219 0.043129265
-0.021616556 0.053678375 -0.17059259 0.03640323 -0.019373035 -0.105140276 -0.09192558 -0.050052844
-0.07684227 0.06835364 -0.038768213 0.02128843 -0.12017326 0.07647298 -0.16447084 0.040027443
-0.15271012 -0.08168462 0.009288138 -0.006568298 -0.014491884 0.020881739 -0.013908515 0.008230121
-0.6537348 0.21657802 -0.7423179 0.21483839 0.22645263 0.22090808 0.22658381 0.24215375
0.21566743 0.21850246 0.23876567 0.24913646 -0.769306 -0.14837824 0.22677842 0.23456179
0.21151507 0.21321096 0.24207689 0.1701232 -0.8004456 0.19287555 -0.52754354 -0.5893808
0.21447046 0.2082461 0.23655713 0.2172316 0.21267714 0.21637319 0.22790729 0.22723664
0.16314639 0.21919027 0.23658468 0.22982925 0.21626852 0.23557852 0.22295834 0.24272954
0.24500144 0.21968414 -0.29570764 0.22076172 0.24993432 -0.46421367 0.21636164 0.21749027
0.21465458 0.14317359 0.18986519 0.229442 0.22322038 -0.81980777 0.19618113 0.24552187
0.2138482 0.23079005 0.20390324 0.24889743 0.21381907 0.23640637 0.21420817 0.2385386
0.22775066 0.22416036 0.1763689 0.22278258 -0.14482671 -0.5342356 0.2172759 0.23959418
0.21831991 0.17673254 -0.7218256 0.21401644 0.1780017 -0.603618 0.23180665 0.21974283
0.2506505 -0.57116926 0.25535142 -0.4349505 -0.39534158 0.18076052 0.22789316 0.24165656
-0.35847995 -0.7577939 0.2302109 0.21915118 0.22676384 -0.39276683 -0.6977291 0.23478492
0.2155892 -0.76095235 -0.60609823 0.25678822 -0.36162114 0.21556547 0.22705755 0.2252519
0.2247119 -0.53483707 0.18705975 0.17673628 -0.6415541 0.23366952 -0.6673988 0.21733546
0.22979133 0.22382313 -0.4796357 0.22980623 -0.6979635 0.24038543 0.07898477 0.22929049
0.19927813 0.22245213 -0.7002156 -0.59720093 0.2264522 -0.08007742 0.21567133 0.23172154
