framework/online/AI_module/Video_prediction/best_model/net_object_decoder_500.pth (torch_old, 307550 bytes, 16 tensors)

main.0.weight f4 [128, 32, 4, 4]
000000 f3 f4 a1 be 18 14 fe 3c c3 94 96 3e 56 b9 e1 3d
       -0.31632194 0.03101544 0.2941037 0.11021678
000010 e0 00 71 3e dd 8d ac be 66 0f e3 bd cb e5 c7 3f
       0.2353549 -0.33701983 -0.110869214 1.5617002
000020 04 67 43 bd 85 97 8f bd 6b a3 79 be dd d8 16 bf
       -0.047705665 -0.07011322 -0.24378745 -0.5892466
000030 e1 02 1c 3e f2 43 b8 be e2 ef 57 bd d4 54 de be
       0.15235473 -0.35989338 -0.052719004 -0.43424094
000040 22 68 2c 3e c9 47 c0 bd d4 ac 99 bf 71 4a d9 bf
       0.16836599 -0.09388692 -1.2005868 -1.6975843
000050 55 40 86 be 73 e4 06 3f 00 69 63 3f ae 81 89 3e
       -0.26220956 0.52692336 0.8883209 0.2685675
000060 c9 98 10 3f b9 82 ae 3d 8c 5d 26 be 28 5f ef bc
       0.5648313 0.08521027 -0.16246623 -0.029220179
000070 af 8d f2 be d2 68 a9 bc 45 69 d9 3d 44 f9 56 be
       -0.4737372 -0.020679865 0.10615782 -0.20993525
000080 c6 17 59 3d c8 31 82 3f a6 01 24 3f 19 1c 26 3e
       0.053001188 1.0171442 0.64065015 0.16221656
000090 36 6c b2 be 80 18 0c 3f 7d 4d be be e6 09 b5 3e
       -0.34848183 0.54724884 -0.37168494 0.35359114
0000a0 fb 3f 77 bb 6d e8 8d be f4 bc e2 3e d2 2d da 3e
       -0.0037727344 -0.2771639 0.44284785 0.42613083
0000b0 b2 56 53 be e6 2b cf bc f6 a0 b2 be 58 3d a9 bd
       -0.2063854 -0.025289487 -0.34888428 -0.082636535
0000c0 54 b0 ee be 65 db 0c 3f e3 32 57 3f 2a 16 06 bf
       -0.46618903 0.5502227 0.8406202 -0.5237757
0000d0 e8 d6 f7 be 7b 63 f1 be f9 40 21 be 51 5e b9 3e
       -0.48406148 -0.4714621 -0.15747441 0.3620477
0000e0 2b e2 a0 3e 00 df 03 3f 57 40 a9 3d a4 c0 f9 bd
       0.31422552 0.51512146 0.08264225 -0.121949464
0000f0 f9 ce df 3d b1 ae 17 3e 6b 83 64 3d 08 5a 94 3d
       0.10928149 0.14812733 0.055789392 0.072437346
000100 e3 27 f3 3e f5 e3 bd 3c 1d eb 8f 3d ed c8 ca 3d
       0.4749137 0.023179987 0.07027266 0.09901605
000110 df 9a 16 bf a9 d3 14 bf 7a cf 0b bf f1 1c 08 bf
       -0.58830065 -0.5813547 -0.5461346 -0.5316916
000120 ca 15 f6 be c0 c8 55 3e 41 61 de be ac f0 6f be
       -0.480635 0.20877361 -0.43433574 -0.23431653
000130 29 22 d1 be a1 43 80 be 17 cd 3a bf 5b d0 35 bf
       -0.40846375 -0.25051597 -0.7296919 -0.7102105
000140 d7 fd 41 3e 91 c7 36 bf 8f bd 54 be fc dd f1 be
       0.18944488 -0.71398264 -0.20775436 -0.47239673
000150 02 28 cf 3e e7 4d ea 3d 94 0d ae 3e 58 fa 23 3f
       0.4046021 0.1144064 0.33994734 0.6405387
000160 02 75 ed bd 08 8c e9 3e e2 b0 ca 3e fb 0e bc be
       -0.11594583 0.45614648 0.39588076 -0.3673018
000170 6f 68 f4 3d ad 96 ed 3d c6 22 66 3e ae f3 a3 3e
       0.119339816 0.11601005 0.22474203 0.3202185
000180 81 d1 3c bf 2e 63 0d be ed f7 36 be 39 eb ac 3c
       -0.7375718 -0.13807365 -0.17868014 0.021108257
000190 9e 65 ab be 34 b1 79 3e bc ed 6d 3e 8f 25 b6 bf
       -0.33475965 0.24384004 0.2323522 -1.4230212
0001a0 39 c8 7a be 3c 50 a8 3e 09 f1 b0 3e ad 27 2e 3f
       -0.24490441 0.32873714 0.34558895 0.6802929
0001b0 51 fc f1 bd 24 d5 e6 be 67 67 f0 3d a0 4a eb 3d
       -0.11815704 -0.45084488 0.117384724 0.11488843
0001c0 a9 a6 ee 3d 89 9e 53 bf d5 de 49 3d b0 f0 8d 3f
       0.11652882 -0.8266378 0.049284775 1.1089077
0001d0 63 06 a5 3e 19 be 35 3e 33 0d da 3e 9d ed 2f 3f
       0.32231435 0.17748298 0.42588195 0.68721944
0001e0 bf c3 33 3e a5 31 65 be e1 d7 1c bd b0 34 dd be
       0.1755514 -0.22382219 -0.038291816 -0.4320426
0001f0 bb 0c 20 be 8f fe aa 3d 3f 12 f8 bc 04 3d ad be
       -0.15629856 0.083493344 -0.030282138 -0.33835614
000200 65 c0 9e 3f 2b aa 9e 3f 91 f6 a5 3b 6c 8f 2a 3f
       1.2402464 1.2395681 0.0050647934 0.66625094
000210 b4 31 6b bf 92 d4 4a be 3e d0 47 be d5 20 f0 be
       -0.91872716 -0.19807652 -0.19513032 -0.4690005
000220 7c b2 47 be e3 8e 7f 3b c5 01 0e 3e a2 e7 6a 3e
       -0.1950168 0.003899508 0.13867863 0.22939923
000230 36 b1 97 3e 4c a8 c7 bd 70 d4 d8 3c e3 61 e9 be
       0.2962739 -0.09748897 0.026468486 -0.45582494
000240 13 46 29 3f be 9b 0d 3f 74 06 5d 3f fb 97 05 3f
       0.6612255 0.5531577 0.8633797 0.5218503
000250 68 2f 05 be 8b 87 1d bf 58 58 df be 95 9b 0f be
       -0.13006365 -0.6153495 -0.43622088 -0.14024194
000260 53 49 6a 3d e0 ed 67 3d 97 1f 3a bd 26 7c 6b 3d
       0.057198834 0.05662334 -0.045440283 0.057491444
000270 3a 21 a6 3e 53 3b c9 3d 39 c0 96 3e ea 7e 13 3f
       0.32447225 0.09825768 0.2944353 0.5761553
000280 ca 07 a9 be b2 dc d0 3d da ca 9f be 91 28 a8 3f
       -0.33013755 0.10198344 -0.3120945 1.313738
000290 9a ec c6 be 8c d7 e4 3d e8 ef 1a 3c 22 41 73 3f
       -0.38852388 0.11173925 0.009456612 0.9502126
0002a0 a8 5e f7 bd 9a 8e 8c be fb c0 a5 be 92 2a 12 bf
       -0.12078601 -0.27452546 -0.32373795 -0.5709621
0002b0 3e e7 89 be 4c 18 75 bd 47 7b b1 3d b2 ff 4a be
       -0.26934236 -0.059837624 0.086660914 -0.19824103
0002c0 1d 9f 93 bf a9 cb 03 c0 de c9 72 bf 21 23 4e 3e
       -1.1532933 -2.0593054 -0.94839275 0.20130588
0002d0 b0 20 b1 3e 96 1f ca 3e c0 fb a2 3e 60 b4 a6 be
       0.3459525 0.39477223 0.31832695 -0.3255949
0002e0 a3 5b f6 3d 02 4c 15 3e 4c 47 e1 3d 99 0c 3f 3e
       0.12029197 0.14579776 0.10999927 0.1865715
0002f0 8e 2a 0b 3f 2d 57 24 bd 99 cd da 3e 0d e4 b1 3d
       0.5436181 -0.0401222 0.42734984 0.08686075
000300 d0 87 88 bf ca 93 95 bf 34 37 08 3f 70 02 08 3c
       -1.0666447 -1.1685727 0.53209233 0.008301362
000310 ef ae 47 be 87 5d 91 be b1 b2 8a be 81 e5 d8 3d
       -0.19500326 -0.28391668 -0.27089456 0.105906494
000320 5d ee 38 3f 07 ff e7 be 8b 34 d7 be ec cb 01 be
       0.72238714 -0.45311758 -0.42032275 -0.12675446
000330 cc 00 ce bd 16 1d 52 3e 98 45 6b 3e f4 24 a6 bd
       -0.10058746 0.20518908 0.22975767 -0.08112517
000340 2c 93 f6 bc 0c 05 6f bf 8c 48 a4 3d bc 20 d6 bd
       -0.030099474 -0.93367076 0.0802165 -0.10455462
000350 53 b7 7c 3f 9e 1a f6 3e 76 37 e5 bd 24 c8 04 3e
       0.9871723 0.48067182 -0.11192219 0.12966973
000360 a4 2d ef be f5 f3 16 be 76 90 50 be 81 b5 50 be
       -0.4671451 -0.147415 -0.20367607 -0.20381738
000370 10 5d 87 be 04 09 57 be fe 66 cf bd fc c2 c9 bd
       -0.2643819 -0.20999533 -0.10127066 -0.098516434
000380 6d e5 bc 3e 7e 8f 32 3e 93 43 13 be e2 d2 28 3f
       0.36893788 0.1743755 -0.14381246 0.6594678
000390 3c 7d 9d be 3f 5e 9a 3e d3 42 54 3d ef 15 3e 3d
       -0.3075961 0.3015003 0.05182154 0.046407636
0003a0 09 2e e1 3e 40 95 e1 bd 23 1c c5 bd 0d d1 92 be
       0.43980435 -0.11014795 -0.09624507 -0.28675118
0003b0 d5 77 cb 3d b4 66 8d be 6d b0 dd bc 64 47 9a be
       0.099349655 -0.2761742 -0.027061665 -0.30132592
0003c0 3e d3 b4 3e 8d fb a9 bf 53 0f e3 bf ca 54 27 bf
       0.35317415 -1.3279892 -1.7739052 -0.6536375
0003d0 fb 7e ee 3e ff 76 93 bf 7e ab c4 be 47 95 8c 3d
       0.46581253 -1.152069 -0.38412088 0.0686441
0003e0 ca 03 0e 3f 04 23 0b 3e 8f 1e e8 be d1 3e 00 3f
       0.5547453 0.13587576 -0.45335814 0.5009585
0003f0 5c be 74 be 8b 17 ef bd ad e5 c3 be aa d5 b4 3d
       -0.23900741 -0.11674412 -0.38261166 0.08829816

main.1.weight f4 [32]
000000 41 b2 6e 3f f9 d4 55 3f ad 7e 5c 3f 5e 23 81 3f
       0.93240744 0.83528095 0.8613079 1.0088918
000010 12 d0 4c 3f 9a 41 37 3f 8c 81 3b 3f 1a ed 64 3f
       0.8000499 0.71584475 0.7324455 0.8942429
000020 a9 44 54 3f df 97 33 3f 3e d8 90 3f 22 53 38 3f
       0.8291727 0.7015361 1.1315992 0.7200185
000030 e6 92 80 3f cf ab 8c 3f a7 ce a0 3f ee 36 84 3f
       1.004483 1.0989932 1.2563065 1.0329263
000040 02 84 36 3f 46 6c 8a 3f 79 db 4d 3f 9b 75 30 3f
       0.7129518 1.0814292 0.80413014 0.6892945
000050 2a f1 91 3f 2e a9 4f 3f b8 05 67 3f ad 74 58 3f
       1.1401722 0.8111752 0.902431 0.84553033
000060 1e 30 3c 3f d9 e0 46 3f 53 f4 49 3f 2c 4d 2c 3f
       0.7351092 0.7768684 0.78888434 0.67305255
000070 48 03 44 3f 3a b9 68 3f 2f 3e 1b 3f 05 19 69 3f
       0.76567507 0.90907633 0.6064176 0.910538

main.1.bias f4 [32]
000000 3b 2b 0b be af 18 2b 3f 7b a0 1e be 4e 6d a1 3f
       -0.1359071 0.6683454 -0.15490906 1.2611482
000010 20 8f dc bd 17 48 a1 3e ce c8 35 3d fe 79 9e 3e
       -0.107694864 0.31500313 0.044380955 0.30952448
000020 bb 67 64 3f 1f 9b 29 3d 5b 76 b1 3d 6d 88 0b 3f
       0.8922078 0.0414077 0.08665153 0.54505044
000030 d2 1d 58 3e ba 8c a2 3e d4 c5 a2 bd 31 ee bf bc
       0.21105126 0.3174799 -0.07947889 -0.023429008
000040 f2 07 d3 3a 44 43 57 3e 89 e9 5d be f8 f8 5c 3e
       0.001610039 0.21021754 -0.21671118 0.21579349
000050 7d 8f 8d bd 42 9b 3e 3e 2d 16 a7 3e d2 7e 88 bd
       -0.06912134 0.18613914 0.32634106 -0.06664814
000060 6c 6a 7e 3d de 86 a0 3e 81 1e 66 3e 64 0e 7b 3f
       0.06211321 0.31352895 0.22472574 0.98068833
000070 53 c4 fc bc 27 0d fb bd 23 46 ad 3b 0d 3e 76 be
       -0.030855333 -0.12258368 0.005287902 -0.24047108

main.1.running_mean f4 [32]
000000 d4 bb ee 3e 52 c8 75 be a7 be 0c 3f 08 2c 4e bf
       0.46627676 -0.24002197 0.5497841 -0.80535936
000010 a7 e8 dc 3d da 47 44 3e 35 76 b8 be 99 09 ab bc
       0.107865624 0.19168034 -0.36027685 -0.0208786
000020 74 46 99 bf 53 04 e9 3e 32 ad f0 3d 85 9d 08 bf
       -1.1974626 0.45511112 0.117517844 -0.53365356
000030 b1 4e 41 3e 36 d8 ab be 63 38 23 3f dd 74 0c 3e
       0.18877675 -0.33563393 0.63757914 0.13716455
000040 0c a2 97 3e 87 8a ee bd b6 e2 27 3f b8 58 62 3e
       0.2961582 -0.11647516 0.6558031 0.22104156
000050 4d 9a d6 3e 4f bf d1 3d 3f 6e 0f be aa 60 b3 3e
       0.41914597 0.10241567 -0.140069 0.35034686
000060 8d d2 7d bd 5d 2b fa bc 9e 40 68 be 8f 09 63 bf
       -0.061968375 -0.030538255 -0.226809 -0.8868646
000070 11 4e f0 be 3a 2b e0 3e 3c b9 41 3e 10 4d 08 3f
       -0.4693456 0.4378298 0.18918318 0.5324259

main.1.running_var f4 [32]
000000 9e 21 35 41 a6 13 3a 41 0f d0 2f 41 78 f2 40 41
       11.320707 11.629797 10.988296 12.059196
000010 26 20 3d 41 d8 da 3a 41 5b 21 39 41 a4 4b 55 41
       11.820349 11.678429 11.570643 13.330967
000020 33 7b 4a 41 11 40 31 41 d2 0a 4d 41 1f 07 36 41
       12.655078 11.078141 12.815142 11.376739
000030 a2 e2 53 41 5c 12 60 41 eb 80 32 41 06 65 32 41
       13.24283 14.004482 11.156474 11.149664
000040 0f e5 3e 41 00 7f 3d 41 c9 fc 31 41 e7 97 49 41
       11.9309225 11.843506 11.124215 12.599586
000050 00 ec 3f 41 50 eb 40 41 a0 d8 3e 41 ef 48 38 41
       11.995117 12.057449 11.927887 11.517806
000060 7b 7f 42 41 13 ab 56 41 8b e1 3f 41 43 48 40 41
       12.156123 13.416766 11.992564 12.017642
000070 a1 51 31 41 1b 71 49 41 b4 24 24 41 79 9d 35 41
       11.082429 12.590114 10.258961 11.350945

main.3.weight f4 [32, 16, 4, 4]
000000 91 35 19 be 7e 38 80 3e 3d 3f 4b 3e c5 82 12 be
       -0.1496184 0.250431 0.19848342 -0.14307697
000010 83 79 19 3f 54 b7 93 be 73 34 ca bd 79 08 79 be
       0.5995104 -0.28850806 -0.09873285 -0.24319638
000020 4a c3 8b be 80 d9 56 3e 9e 9e ac 3c 77 73 d8 3d
       -0.2729743 0.20981407 0.021071728 0.10568898
000030 ff 8a 02 3f 53 2c c4 be d1 3d 73 3e 46 81 78 be
       0.5099334 -0.38315067 0.2375405 -0.24268064
000040 1d 46 47 3e 26 14 99 be 9f 23 47 be 6a 74 1e 3e
       0.1946034 -0.29898185 -0.19447182 0.15474096
000050 db 48 78 3e b3 f4 ac 3e aa 47 72 3d 1a 0d a9 3e
       0.24246542 0.3378044 0.059150375 0.33017808
000060 e7 9a 8b 3e ac ce d2 bc 29 4f d1 3e 25 ca 03 be
       0.2726662 -0.025733314 0.40880707 -0.12870081
000070 36 57 e2 bc 31 93 dc bd 0c 0b 3d bf 65 e2 4e be
       -0.027629476 -0.10770262 -0.7384498 -0.2020355
000080 68 79 2d 3d 6d 14 10 3e 69 34 02 be dc e2 47 bd
       0.04235211 0.14070292 -0.12715305 -0.048800334
000090 4f 12 22 bb 9f 1f 8f 3e c0 81 49 3e 40 ce 4f bb
       -0.002473015 0.27953812 0.19678402 -0.0031708628
0000a0 1f 3d aa bd bf cd 94 3e c0 9e cb 3e 1a 9d 8d 3d
       -0.08312439 0.29063222 0.39769554 0.0691473
0000b0 75 d5 7d bd 9c 8a a9 be ff 01 b1 be 03 23 92 3d
       -0.061971147 -0.33113563 -0.34571835 0.07135584
0000c0 03 bb 73 bd a5 f4 01 bf e8 cf d5 3d 2c 30 b3 be
       -0.05950452 -0.5076392 0.104400456 -0.3499769
0000d0 3d 8c 18 be f1 8f 8e be 4d a0 f4 bd 97 d8 88 3c
       -0.14897247 -0.27844194 -0.119446374 0.01670484
0000e0 24 ee c0 be eb 88 3d be 3a 3e df 3c 62 30 ea bd
       -0.37681687 -0.18509261 0.027251352 -0.114350095
0000f0 e3 ff 09 be 9f 9b b7 be 1d 9f 19 be 28 12 0e be
       -0.1347652 -0.35860917 -0.15002103 -0.13874114
000100 d4 f2 7e 3c e0 a4 01 3f a3 a2 70 3e c7 30 74 3e
       0.015560824 0.50642204 0.23499541 0.23846732
000110 6c a3 24 3e 72 25 51 bf aa d4 91 be dd 44 0f be
       0.16077965 -0.8169776 -0.28482562 -0.13991113
000120 b7 d0 f5 bd 58 47 f0 bd 0a aa 44 be 7a 72 5b be
       -0.120027 -0.11732358 -0.1920549 -0.21430388
000130 35 62 2d 3e 03 23 37 be b5 d0 dc 3b b0 c5 fd be
       0.16931994 -0.1788445 0.006738747 -0.49564886
000140 16 0f c4 bd 8f 29 c4 3e 26 65 3d 3e 33 d6 3a 3e
       -0.0957319 0.38312957 0.18495616 0.18245773
000150 70 07 e9 3d f8 c4 9a be a8 09 d2 bd 64 a8 a2 3e
       0.11378372 -0.302284 -0.10255748 0.31769097
000160 e2 ab 03 bc ff 12 cf 3e 81 48 22 be e5 cb 38 3c
       -0.0080365855 0.4044418 -0.1584797 0.011279081
000170 59 98 68 be 25 17 cb 3c ae 8e df 3e 7d 04 19 3e
       -0.22714366 0.02479131 0.43663543 0.14943118
000180 42 64 e5 3d 77 da 4a 3c d6 72 a7 3e 5e 93 54 be
       0.11200763 0.012381188 0.327048 -0.20759341
000190 df c4 af 3e 1e 3c f5 3d de fa e7 be d4 6a bf 3c
       0.34329888 0.11974357 -0.45308584 0.02336637
0001a0 aa 62 d6 3d 34 08 bf be 12 91 eb 3d fc 35 51 bf
       0.104680374 -0.37310946 0.11502279 -0.81723
0001b0 dd 88 40 3e da 66 22 be d3 7c a7 3d 0a b7 36 be
       0.18802209 -0.15859547 0.08178105 -0.17843261
0001c0 02 6e f2 bd d6 c8 61 bd 3d 49 98 bd fe 79 4e bd
       -0.118373886 -0.055123173 -0.07435844 -0.05040931
0001d0 3b f0 16 3e ab 20 54 be 64 5a 5d 3c a0 61 2a 3e
       0.14740078 -0.20715587 0.01351032 0.16638803
0001e0 3a d6 20 be de 2b 02 3e d4 c6 1f 3e fe 03 65 3d
       -0.15706721 0.12712047 0.1560319 0.05591201
0001f0 73 e7 48 be e2 91 4e bd 05 59 95 be b3 46 cd bd
       -0.19619541 -0.050432093 -0.2916948 -0.100232504
000200 f8 5c bd bc 07 f2 1e 3e 02 d1 5c 3d bb 84 a8 3d
       -0.02311562 0.15522014 0.053910263 0.08228441
000210 28 2a 89 bc e0 bf ea bd be f2 1c be 23 48 b7 be
       -0.016743734 -0.114623785 -0.15326974 -0.35797223
000220 ba 4b 2b 3e 2a 9f d5 3e d0 2e 79 3d 29 b6 c3 3d
       0.16728106 0.41722995 0.06083566 0.09556229
000230 44 f6 31 3e b4 81 09 be 88 70 0d 3f c4 fc ec be
       0.17379099 -0.13428384 0.55249834 -0.46286595
000240 ad 56 da bd d8 d1 8e 3d 9c f4 2b 3e 3e ae f5 3d
       -0.10661063 0.06973618 0.1679253 0.11996125
000250 11 13 16 3d 80 93 3c 3e ef dd 26 3d 64 03 a9 3e
       0.036639277 0.18415642 0.040738996 0.330104
000260 e3 5a 7f be 10 ae 04 be 4e 3e 18 3e c5 a1 bb bd
       -0.24937014 -0.12957025 0.14867517 -0.091617145
000270 71 db 65 be 52 05 42 be 3b 8e 39 bf 03 c7 ce bc
       -0.22446992 -0.18947342 -0.7248265 -0.02524138
000280 77 d2 70 3e c3 12 8d 3c ea 3f a2 bd 06 9f 13 be
       0.23517786 0.01722086 -0.07922347 -0.14416131
000290 53 d3 8b 3e d0 b7 59 be ba a7 76 3b 48 33 f6 3c
       0.27309665 -0.21261525 0.0037636594 0.03005375
0002a0 2c 99 84 bd fa 3a 62 be 58 a8 f4 bd bb 35 0d be
       -0.06474528 -0.2209281 -0.119461715 -0.13790028
0002b0 4c d2 08 bd e7 d6 08 bc 61 87 e4 3d 45 74 1a 3e
       -0.03340368 -0.008352018 0.11158634 0.15083416
0002c0 16 47 8c 3d 69 dd 95 3e e9 10 42 3e da 19 8a 3d
       0.06849496 0.29270485 0.18951763 0.06743212
0002d0 27 cb cc bd 8c 45 a3 be 73 35 ac 3e 7e 48 e2 bd
       -0.09999686 -0.31888998 0.3363453 -0.11048983
0002e0 ff e6 d7 be ea 7d ca be ad 5e d8 be d2 e5 fd be
       -0.42168424 -0.3954919 -0.42259732 -0.495894
0002f0 8e 76 0a bd 93 d7 31 3d 9b e0 05 be 33 4f 1e bd
       -0.03380447 0.04341848 -0.13073961 -0.03864975
000300 4e 9c 1b be d2 f0 a2 bd fd 71 0a be 37 32 cd be
       -0.15196344 -0.07956089 -0.13520046 -0.40077373
000310 23 c9 3d be 4f c6 5b be a2 44 82 3e 7a 1a 9f bc
       -0.18533759 -0.21462367 0.25442988 -0.019421805
000320 a4 87 b1 be 3c b4 64 3e 64 c6 ef be e2 5a 82 be
       -0.34673798 0.22334379 -0.46831048 -0.25459963
000330 96 05 ec be 4d c3 fd be 07 73 6a 3e 0c 3e df bd
       -0.46098012 -0.49563065 0.22895442 -0.109005064
000340 51 08 31 bf 06 bb 32 3e db 80 cb bd 38 49 7b 3c
       -0.69153315 0.17454156 -0.099366866 0.015337281
000350 d1 ea 00 bf a8 67 2a 3d 4b f2 51 3e 0b 2f 07 be
       -0.503583 0.04160276 0.20502584 -0.13201539
000360 cc 12 35 3f e8 d8 e5 3d 51 ab 36 3f 21 12 19 3e
       0.70731807 0.11223012 0.7135516 0.14948322
000370 ab 23 23 3e be a6 6a bd af 67 f6 bb 51 4c 56 3e
       0.15931575 -0.057287924 -0.0075196843 0.2092755
000380 af db 36 3e cd b1 b7 be 72 1f 1e bd 91 6d 5a 39
       0.1785724 -0.3587784 -0.038604207 0.00020830917
000390 0b 21 d6 3d b2 bc b4 3e 8b 63 bb 3d 41 e8 12 3e
       0.10455521 0.35300213 0.09149846 0.1434641
0003a0 62 90 5d 3e 65 89 1b 3e 17 5b ca be 8c a1 5c 39
       0.21637109 0.1518913 -0.3952262 0.00021041016
0003b0 48 66 9b be 8c 59 0e 3f 8c 82 ae 3e 5e c7 98 3e
       -0.30351472 0.5560539 0.34083974 0.29839605
0003c0 5d db 18 bc c1 86 97 be bd 96 ad be 00 6f db bd
       -0.009329644 -0.29594997 -0.33904067 -0.10714531
0003d0 df 5f 86 3f fc 43 60 be d1 57 6b 3e f8 81 62 be
       1.0498008 -0.21900934 0.22982718 -0.22119892
0003e0 1e ea 36 3e 85 a9 9c be bb b4 21 bc a3 fc d5 bd
       0.17862746 -0.30598083 -0.00986975 -0.10448577
0003f0 a1 20 bd be 1e 09 25 be 89 08 1b bf 87 1a 0e 3d
       -0.36938956 -0.16116759 -0.605599 0.034693267

main.4.weight f4 [16]
000000 5e e9 51 3f 5f f2 3a 3f 39 13 5b 3f 93 dc 8d 3f
       0.81996715 0.7302608 0.85576206 1.1082939
000010 42 17 58 3f c3 5c 51 3f 49 fe 9d 3f ec 58 41 3f
       0.8441049 0.8178217 1.2343227 0.7552631
000020 e4 39 9f 3f 82 61 4a 3f 20 83 95 3f 5d ad 72 3f
       1.2439542 0.79055035 1.1680641 0.9479578
000030 bb d0 6f 3f 66 ba a9 3f f4 19 51 3f 54 cb 80 3f
       0.9367787 1.3260009 0.81680226 1.0062051

main.4.bias f4 [16]
000000 18 f2 95 bc 9b 8c bc be a1 77 87 bd e9 ca 44 3e
       -0.018303916 -0.36826023 -0.06614614 0.19218029
000010 1d 7a 5f 3d e5 03 15 3d 18 c3 bc 3e c8 8e fc bd
       0.054559816 0.036380667 0.36867595 -0.12331921
000020 8e 37 6a 3e e6 59 d7 bd 46 2e 0b 3e 6c 02 c1 3d
       0.22872755 -0.10515194 0.1359187 0.0942429
000030 99 3d 56 bd 93 4a 0d 3e 24 69 6f be f8 69 d5 3e
       -0.052304838 0.13797979 -0.23379952 0.4168241

main.4.running_mean f4 [16]
000000 fe 02 62 c0 af e7 20 bf 65 0a 47 3e 11 c2 d7 c0
       -3.5314326 -0.6285352 0.19437559 -6.7424397
000010 3a 71 80 c0 ef fa 88 3f 45 be 89 c0 ce 7b 81 bf
       -4.0138216 1.0701579 -4.3044763 -1.0115907
000020 6b c3 86 c0 b6 66 a9 bf 3d b9 70 c0 86 7d 1d c0
       -4.2113547 -1.323447 -3.761306 -2.4607863
000030 75 0f 30 c0 dc d5 21 c0 f2 fb dc be 96 6e ed c0
       -2.7509434 -2.528678 -0.4316097 -7.4197493

main.4.running_var f4 [16]
000000 d0 cb a1 41 d0 a0 fe 40 7f c7 03 41 3b d0 0c 42
       20.224518 7.9571304 8.236205 35.20335
000010 1d 53 7c 41 00 b9 b3 40 a3 8d 1a 42 35 86 a1 40
       15.770291 5.616333 38.638317 5.0476327
000020 c9 47 d6 41 b3 a8 22 41 22 a9 b7 41 09 93 65 41
       26.785051 10.166186 22.957584 14.348397
000030 c7 85 8a 41 2b e5 4f 41 cb 5a c7 40 ca b0 04 42
       17.315321 12.993449 6.229833 33.172646

main.6.weight f4 [16, 8, 4, 4]
000000 19 12 80 bd d8 02 01 bd 92 c2 99 3a 5f 2d 0f be
       -0.06253452 -0.031496853 0.001173096 -0.13982151
000010 14 25 22 3e 58 d2 47 3d eb 62 35 be d2 51 0c bf
       0.15834457 0.048784584 -0.17713515 -0.5481235
000020 03 46 cb 3e c7 16 15 3f 2a 45 eb 3e 5b f7 ac be
       0.39701852 0.5823788 0.45951205 -0.33782467
000030 d3 2c 9e bd 0d a4 85 3e 72 db 33 bc b0 70 00 3e
       -0.07723393 0.26101723 -0.010977613 0.12542987
000040 65 b1 d2 3c a0 53 34 3e ad 7f f6 3d 01 bc 00 bd
       0.025719354 0.17610025 0.12036071 -0.031429294
000050 03 5d 4a be 10 45 da 3e b6 bc 16 3d f3 4e 1c be
       -0.19762044 0.42630816 0.036801063 -0.15264492
000060 58 9b fa 3b 12 95 97 b9 f2 66 73 be f5 9e 2a be
       0.007647913 -0.0002891203 -0.2376974 -0.166622
000070 fe ab 51 3c 05 ae e2 be 27 66 ba 3e 18 44 35 be
       0.012797354 -0.4427339 0.3640606 -0.17701757
000080 7d 97 10 b9 4a 96 ee bc 52 a8 88 be 4b fe 8b bd
       -0.00013789344 -0.029124398 -0.26690918 -0.06835612
000090 55 83 0d be 6f 09 c5 bc 6e 37 23 be 1a 31 06 be
       -0.1381963 -0.02405235 -0.15939113 -0.13104668
0000a0 ac 04 df bd 0b 5d da 3e 4a 4a 22 3e 94 5b a8 bd
       -0.10889563 0.4264911 0.15848652 -0.08220592
0000b0 3c 87 ba be 62 92 76 bd 9d a4 ef bd 2f 41 ce bd
       -0.364313 -0.060198195 -0.11701319 -0.100710265
0000c0 85 df ec 3d 49 90 dc be 54 bf 3b bd b3 35 05 be
       0.115660705 -0.4307883 -0.04583676 -0.13008766
0000d0 2d f5 8b bd c6 98 32 bc 6e 3d 28 3e 52 6f 80 bc
       -0.06833873 -0.010900682 0.16429684 -0.015678082
0000e0 10 0f ae 3e 9e b0 6e 3f 68 6b da 3e c4 54 c2 39
       0.33995867 0.93238246 0.4266007 0.0003706572
0000f0 4f 5e 13 be 6d 6c 1c bc 10 0f f4 be d7 a0 b1 bc
       -0.14391445 -0.009547335 -0.47667742 -0.02168314
000100 c2 ad 41 bd 1d 98 34 3d 67 1a 40 be 7a 7f 27 be
       -0.04728485 0.04409038 -0.18760072 -0.16357222
000110 fe 65 a3 be dd ca 64 bd eb 03 d7 3e b1 f2 19 bd
       -0.3191375 -0.055857528 0.41995177 -0.037584964
000120 eb f2 80 be e7 82 98 3e a2 d6 13 3f 8b cc 54 3e
       -0.25185332 0.2978737 0.5774938 0.20781152
000130 a3 ab 8a be 13 de d7 bc 0e d8 88 bd 06 af 4d bc
       -0.27084073 -0.02635101 -0.06681834 -0.012553936
000140 5b 63 98 3d 4e be 9b 3d f8 d8 9a bb d6 4e f8 3d
       0.074408256 0.07604657 -0.0047255717 0.12124412
000150 4b 49 07 3e 94 68 9c 3e 1a 76 dd bd d1 af 31 3e
       0.13211553 0.30548537 -0.10813542 0.17352225
000160 d7 96 73 3e dd 99 0a 3f 9f f7 a3 be 07 b4 35 3e
       0.2378801 0.54141027 -0.32024857 0.17744456
000170 44 29 4c 3c 33 c7 94 3d 2b a4 05 3e 6c 81 ef bb
       0.01246101 0.07264557 0.13050906 -0.0073091295
000180 d4 e4 23 be 1a 60 7d 3d 2b 57 29 3e 8f 79 20 3d
       -0.1600526 0.061859228 0.16537158 0.039178427
000190 4d 63 6f 3e 94 82 64 3e 96 c6 10 3e 6b f0 88 3e
       0.23377724 0.22315437 0.14138255 0.26745924
0001a0 fb 1d 88 3e 37 ed 23 be 34 2e 9b be 0c ef 0a 3e
       0.26585373 -0.16008459 -0.30308688 0.13567752
0001b0 1a 80 51 3e ef 17 46 bd ea c6 02 be 11 59 d7 3d
       0.20459023 -0.04836267 -0.12771192 0.10515035
0001c0 df 89 c6 3d d4 0c c6 bb 18 4a 4a 3d 20 b5 b9 3c
       0.096942656 -0.0060440097 0.049387068 0.022669375
0001d0 26 3d fb bd 41 da c3 bd 78 a2 ec bc f0 17 d4 bd
       -0.122675225 -0.09563113 -0.028886065 -0.10356128
0001e0 51 26 70 bd 6c 23 18 be 0d ba b6 be 8c e9 88 be
       -0.05863029 -0.14857262 -0.3568882 -0.26740682
0001f0 a9 40 9f be 02 8e 4d bd bc ba e6 bc fe 9b e7 bc
       -0.3110402 -0.050184257 -0.028165214 -0.028272625
000200 a4 da f0 3d 66 1c f2 3d 39 95 95 3d 94 45 5c bd
       0.117604524 0.11821823 0.073038526 -0.053777292
000210 7a 80 d9 bd 06 0d eb be da f9 ab be 61 60 e0 bd
       -0.10620208 -0.45908374 -0.3358906 -0.10955883
000220 1c de 4c 3e e4 6a dd 3d 17 38 57 be 63 2b de bd
       0.20006603 0.108114034 -0.2101749 -0.10848119
000230 1f a2 c6 3c b8 a0 31 be da 7f bf be 60 e4 a0 be
       0.024247227 -0.17346466 -0.3740223 -0.31424236
000240 69 17 65 be 8f 53 55 bd 82 2b cf 3d f9 75 03 be
       -0.22372212 -0.05208164 0.1011572 -0.12837972
000250 77 18 0a bd 88 c3 8a bd 78 d5 13 be 5c 1a 14 3c
       -0.033714738 -0.06775576 -0.144369 0.009039488
000260 e3 33 d7 bd 14 d1 e2 3d bc fe 0e be b8 c5 1e be
       -0.105079435 0.11075035 -0.13964361 -0.15505111
000270 1a 02 52 3d c7 e2 86 bd 98 39 1d be fb 65 7c be
       0.051271535 -0.06586223 -0.15354002 -0.24648277
000280 d8 89 55 bd 31 36 21 bd b5 56 05 bd 44 55 0e bd
       -0.05213341 -0.03935832 -0.032553393 -0.034749284
000290 b9 17 88 bd 37 65 24 bd 95 ce 3d be e2 60 ec bd
       -0.0664515 -0.04013559 -0.18535836 -0.115419164
0002a0 09 75 90 3c 11 35 b4 3e f7 4e f3 3e 74 af 9a bc
       0.017633932 0.35196736 0.47521183 -0.01888249
0002b0 ce 84 67 be 61 64 60 3e 9a 94 be 3d 0e 00 87 bd
       -0.22609255 0.21913292 0.09305687 -0.06591807
0002c0 98 28 0a bd 75 44 29 3e 16 88 ff bd 11 61 6b 3e
       -0.03373012 0.1653002 -0.12477128 0.22986247
0002d0 30 ce 05 be e0 b8 ac 3d ed 5b cd be df 98 75 3d
       -0.13066936 0.084336996 -0.40109196 0.059960242
0002e0 4c 2f 3b 3d 1b 5d 74 3f 56 a9 04 be 13 41 89 be
       0.045699403 0.9545457 -0.12955222 -0.2680746
0002f0 3d 4e 91 bf 41 c8 7f 3d 9e 3a 7e 3e b8 60 c6 3c
       -1.1352001 0.062446836 0.24827048 0.024216041
000300 74 18 c5 bc 7d 92 54 be ac d7 96 be 43 7a 44 be
       -0.024059512 -0.20759006 -0.2946142 -0.19187264
000310 8a d5 07 be 0d 14 92 bd 91 71 5b bb 37 75 d0 bd
       -0.13265052 -0.07132731 -0.003348444 -0.10178607
000320 85 dc 17 3e 37 46 c5 3e 13 24 29 3f 89 3b bf 3d
       0.14830215 0.38530132 0.6607067 0.09337527
000330 71 ab e6 bd 5c f6 e1 bd 77 7c b6 ba da 47 28 be
       -0.112631686 -0.110333174 -0.0013922591 -0.16433659
000340 36 78 18 3e f1 da 60 3c 34 29 80 bd a3 44 00 3e
       0.14889607 0.013724075 -0.06257859 0.12526183
000350 9e 17 de bd c4 56 df be 5d fa 1f bd 14 5c 2e be
       -0.10844348 -0.43620884 -0.039057124 -0.17027313
000360 67 3c 08 3f ee 58 a5 3e bc 69 37 be 20 3b 50 3d
       0.53217167 0.3229441 -0.17911428 0.050837636
000370 fd d4 82 bc fa 0d 84 3d a9 a5 8d be 8c 9b 5e 3e
       -0.015970701 0.06447978 -0.2766545 0.21739024
000380 31 12 53 bd a8 1c 95 bd 20 63 a4 bc d1 18 86 bb
       -0.05153102 -0.07280856 -0.020066798 -0.004092314
000390 39 ff 05 3e ef 27 82 3e 23 26 ae 3e b3 d0 08 3e
       0.13085641 0.25421092 0.3401347 0.13360862
0003a0 24 9a 36 3e 3e 37 c5 bd 9b f1 a2 bd dd 00 c2 3d
       0.17832237 -0.09629677 -0.07956239 0.09472821
0003b0 88 94 9d bd ab 7b 22 bf 28 44 89 be 81 c7 17 3e
       -0.07694346 -0.6346995 -0.26809812 0.14822198
0003c0 2f 5d 31 bc d3 78 0f bc a5 18 5d 3b d0 85 26 3e
       -0.010825439 -0.008756834 0.0033736613 0.16261983
0003d0 3f 0b 83 bd 3d bd 7b bd c8 f8 8d bd 1b 7d 92 bd
       -0.063986294 -0.06145977 -0.06932217 -0.07152768
0003e0 d1 57 ae be cf 86 bc 3e 07 8f 1e be 04 1e d3 3d
       -0.34051374 0.368216 -0.15484248 0.103084594
0003f0 f4 c2 a2 3d b6 1e 20 be af 0f f8 bd fe da 36 bd
       0.079473406 -0.15636715 -0.121123664 -0.04464244

main.7.weight f4 [8]
000000 ab c4 d2 3f 4c d7 cb 3f 94 39 03 40 0e 31 c3 3f
       1.6466268 1.5925078 2.0503893 1.5249345
000010 7f a1 eb 3f bc b8 bd 3f ff 31 e3 3f e7 c9 c6 3f
       1.840866 1.4822001 1.7749633 1.5530366

main.7.bias f4 [8]
000000 90 5e be 3e 7d c9 e9 3e 66 d4 2e 3f 39 32 af 3e
       0.3718152 0.45661536 0.68292844 0.34218004
000010 0f 46 07 3f 1d 7a ec 3e 29 d5 48 3e 97 11 bc 3e
       0.52841276 0.46186915 0.19612564 0.3673217

main.7.running_mean f4 [8]
000000 ce 12 67 be 49 99 65 3e 63 0d 71 3f c2 48 6d 3f
       -0.22565767 0.22421755 0.9416105 0.92689145
000010 58 74 d3 3e 16 ee 6e 3f 63 0a 13 c0 c2 ca 0b 3f
       0.412997 0.9333204 -2.297509 0.5460626

main.7.running_var f4 [8]
000000 02 de 93 3f 1f f5 18 40 83 1e 29 40 1d 3c 82 40
       1.1552126 2.389961 2.6424873 4.069838
000010 45 2c 48 40 a3 24 fb 3f ed 03 40 3f ad 8b 25 40
       3.127702 1.9620556 0.7500599 2.5866501

main.9.weight f4 [8, 1, 4, 4]
000000 c3 56 41 3c 7d f0 bb bd ab c0 10 be 08 5c 76 bc
       0.011800471 -0.09176729 -0.14135997 -0.01503659
000010 20 f3 05 be 8a 7e f0 be e7 fa e5 be df fe 15 be
       -0.13081026 -0.46971542 -0.44917986 -0.14648007
000020 a7 a3 41 be 88 4b 16 bf 44 da f2 be a4 dd 03 be
       -0.18910085 -0.58709 -0.47432148 -0.12877518
000030 9a 93 7d bd e2 90 89 be f3 26 1c be 22 45 b6 3c
       -0.061908342 -0.2686835 -0.15249233 0.022249762
000040 5d 39 d4 3c 51 35 83 bd 1e 10 1b be 70 f3 e4 bd
       0.02590626 -0.06406654 -0.15142867 -0.111792445
000050 c4 0d e5 bd e2 73 dc be 13 48 08 bf af 1a a3 be
       -0.11184266 -0.43057162 -0.53234977 -0.31856295
000060 7d 36 31 be 7d de 0a bf 0d 44 04 bf d3 95 2c be
       -0.17305942 -0.5424574 -0.5166634 -0.16854028
000070 00 05 94 bd 2e ee 7b be 47 c4 3f be 82 37 a7 3c
       -0.07227516 -0.24602577 -0.18727218 0.02041221
000080 9d f1 25 be ee f5 70 be cb 8b c4 be 18 d2 b9 be
       -0.1620545 -0.23531315 -0.38387904 -0.362931
000090 8c 51 48 be 77 f2 8d be 6e 8b f2 be 12 7d e6 be
       -0.19562358 -0.27724048 -0.47372 -0.45017296
0000a0 9b 04 5c be 66 20 ca be 22 61 d6 be 55 05 7b be
       -0.21486132 -0.39477843 -0.4187098 -0.24513753
0000b0 32 45 30 be a1 87 9a be 7b 0f 54 be 3f 58 bf bd
       -0.17213896 -0.30181602 -0.2070903 -0.093430035
0000c0 14 31 44 3c 60 97 1a bd 2a 22 c8 bd 88 64 39 bd
       0.011974592 -0.03774202 -0.09772141 -0.04526189
0000d0 d8 58 db bd a0 f1 aa be 5f 41 c2 be 12 9c 51 be
       -0.10710305 -0.3338747 -0.379405 -0.20469692
0000e0 f0 fd 08 be dc 4e d7 be a8 6d e4 be 6a 92 4d be
       -0.1337812 -0.42052352 -0.4461491 -0.20075384
0000f0 d0 7a 65 3c fa 7e d8 bd 49 d9 20 be d8 e5 2e bb
       0.014006332 -0.10571094 -0.15707888 -0.002668729
000100 68 f4 d9 3d b9 21 c2 3d 96 b1 c5 3c 9b 43 0b 3e
       0.1064232 0.09479088 0.024132531 0.13600008
000110 53 62 ce bb f6 1d aa be c6 6f 07 bf 9e 1e ea bd
       -0.0062983423 -0.33225983 -0.5290493 -0.11431621
000120 26 0c bd bd bd 61 02 bf 2c 2b 33 bf d8 cc 43 be
       -0.09230833 -0.50930387 -0.6998775 -0.1912111
000130 90 1f 93 3d 8b 76 0d be ac 9f 83 be cd ed 0e 3d
       0.071837544 -0.13814752 -0.25707757 0.034894753
000140 b1 6f 4a bb 5b 65 05 be 17 b2 18 be 7b f5 00 bd
       -0.0030889327 -0.13026945 -0.14911686 -0.03148411
000150 fd cd 01 be 4b a2 ee be 98 6c cf be cc 0b 20 be
       -0.12676235 -0.46608195 -0.40512538 -0.156295
000160 0c e3 54 be 85 ed 14 bf 78 22 ea be 04 49 19 be
       -0.20789737 -0.58174926 -0.45729423 -0.1496926
000170 58 ea 66 bd 5f 57 74 be 29 b1 01 be 69 d2 39 3d
       -0.05637583 -0.23861454 -0.12665237 0.04536668
000180 be a7 2c 3e 46 a9 a3 3e 88 da 6b 3e b9 88 04 3e
       0.16860864 0.31965083 0.23032582 0.1294278
000190 d0 d9 bb 3e 5f 1e 16 3f 18 ec b8 3e e8 92 13 3e
       0.36689615 0.5864009 0.36117625 0.14411509
0001a0 70 42 87 3e 50 6b bb 3e 55 82 35 3e 17 0d 42 3c
       0.26417875 0.3660531 0.17725499 0.011843941
0001b0 e1 5c d5 3d 42 dd ba 3d 64 8a 74 3b a2 2f c5 3b
       0.10418106 0.09124233 0.0037313933 0.006017641
0001c0 9d 4b 9f 3c ed e6 41 bd ce 67 09 be 0a 24 95 39
       0.019445235 -0.04733937 -0.13418505 0.00028446346
0001d0 e9 7c 0e be 89 18 d7 be b6 1c 07 bf fd 99 47 be
       -0.13914837 -0.42010906 -0.52778184 -0.19492336
0001e0 fa 96 34 be b3 33 fc be 2f 52 07 bf 2e 38 b3 bd
       -0.17635718 -0.49258193 -0.5285978 -0.0875095
0001f0 c0 fe 15 bd 7e 34 30 be 1f 18 1a be f3 45 f0 3d
       -0.0366199 -0.17207524 -0.15048264 0.11732092
