framework/online/AI_module/Spatial_transformer/zf_model/net.pth (torch_old, 112190 bytes, 16 tensors)

conv1.weight f4 [10, 1, 5, 5]
0	0xbd3870a1	-0.045029286
1	0x3dbd5e7f	0.09246539
2	0x3d72bc25	0.05926146
3	0x3e035adf	0.12827633
4	0x3ea13caf	0.3149161
5	0x3c408942	0.011751475
6	0xbe11b8fc	-0.14230722
7	0x3d6156fd	0.0550146
8	0xbdfcf826	-0.12352018
9	0xbcdd0202	-0.026978496
10	0x3d88e3c2	0.06684066
11	0x3dbb3df9	0.0914268
12	0x3e1a0083	0.15039258
13	0x3e8e954f	0.27848288
14	0x3ea28d4a	0.3174842
15	0x3e9f170c	0.3107227
16	0x3e9c8d4a	0.30576545
17	0x3e98a4af	0.29813144
18	0x3dcf8edb	0.101346694
19	0x3e6c7c7d	0.23094364
20	0x3e937967	0.2880356
21	0x3e81c703	0.25347146
22	0xbce01278	-0.027352557
23	0x3d140d31	0.036145393
24	0xbe0f18a2	-0.1397424
25	0x3e7fbab8	0.24973571
26	0x3e832190	0.25611544
27	0x3ef5d544	0.4801427
28	0x3f058b56	0.52165735
29	0x3e53c81e	0.20681807
30	0xbe28df98	-0.16491544
31	0xbe1a5a1c	-0.15073436
32	0x3cca7719	0.024714993
33	0x3eac4974	0.3364979
34	0x3e875797	0.26434013
35	0xbe434000	-0.19067383
36	0xbe0e0f13	-0.13872938
37	0xbe9c308e	-0.30505794
38	0xbe8b63ba	-0.27224523
39	0xbe429822	-0.19003347
40	0x3da6fc36	0.08153574
41	0xbe6c004a	-0.23046985
42	0xbe8cd25a	-0.27504236
43	0xbebb893b	-0.36628136
44	0xbeb343d2	-0.3501268
45	0x3dcf4a8b	0.1012164
46	0x3e24956b	0.16072623
47	0xbd22b199	-0.03972015
48	0xbe3bc2ff	-0.18336104
49	0x3db6cd48	0.08925873
50	0xbe37414b	-0.17896001
51	0xbde0d5e6	-0.10978298
52	0x3e38b294	0.18036872
53	0x3e462519	0.19350089
54	0x3e84473c	0.25835598
55	0xbe842626	-0.25810355
56	0xbe1bf9bd	-0.15231986
57	0x3de0c1d0	0.10974467
58	0x3e5104bd	0.20411964
59	0x3e68e957	0.22745262
60	0xbac2a254	-0.0014849403
61	0xbe8850e5	-0.26624218
62	0xbe2f43f7	-0.1711577
63	0x3e27c379	0.1638316
64	0x3e801b0d	0.25020638
65	0xbe97ff8c	-0.29687154
66	0xbe8a61b3	-0.27027664
67	0xbdf39ec3	-0.11895516
68	0x3ed623a9	0.41824082
69	0x3d701408	0.058612853
70	0xbe875eb3	-0.26439437
71	0xbd57f05d	-0.052719463
72	0x3e49123b	0.1963586
73	0x3e868d6d	0.26279774
74	0xbd1258d4	-0.035729244
75	0xbdf8107d	-0.1211252
76	0xbeaa0edf	-0.3321447
77	0x3d991aef	0.0747584
78	0x3e024405	0.1272126
79	0x3e87f277	0.26552173
80	0xbe915d6d	-0.2839159
81	0xba6a4867	-0.00089371804
82	0x3dae4e59	0.085110374
83	0x3e34572d	0.1761138
84	0x3e48303e	0.19549653
85	0xbe91ac58	-0.284518
86	0x3c7c28cd	0.015390587
87	0x3dd5cde3	0.104396604
88	0x3ec825a2	0.39091212
89	0xbe1acd57	-0.15117393
90	0xbe3ed8c0	-0.18637371
91	0x3e7c0def	0.2461469
92	0x3eb38f4a	0.35070258
93	0x3c6b1f23	0.014350685
94	0x3dcf8938	0.10133594
95	0xbb883f67	-0.004157949
96	0x3d620b73	0.0551867
97	0x3d829ff0	0.06378162
98	0x3e0bbece	0.13647005
99	0xbe446cc5	-0.19182117
100	0x3e539eba	0.20666018
101	0x3ce6081b	0.028080037
102	0x3ea4694b	0.32111582
103	0x3e628963	0.22122721
104	0xbd2e5707	-0.042563464
105	0x3e717b4b	0.23582189
106	0x3e41c1c9	0.1892158
107	0x3ead12c9	0.33803394
108	0x3dbac485	0.091195144
109	0x3d943045	0.07235769
110	0x3dd8aad7	0.1057946
111	0xbd993b36	-0.07481997
112	0x3df6bba5	0.12047509
113	0x3e4d0172	0.20020083
114	0x3e6dc599	0.23219909
115	0xbe4a0c76	-0.19731316
116	0xbe6d61c3	-0.23181824
117	0xbeac40af	-0.336431
118	0xbe7cc270	-0.24683547
119	0xbe016829	-0.1263739
120	0xbec306fa	-0.3809126
121	0xbe0684d4	-0.13136607
122	0xbeb6e135	-0.35718694
123	0xbe568b8b	-0.20951669
124	0x3afacb6f	0.0019134114
125	0xbc5fa04d	-0.0136490585
126	0x3ea382b9	0.3193567
127	0x3ed06faf	0.40710208
128	0x3ec5fb4e	0.38668293
129	0x3e77d5ba	0.24202624
130	0x3e39924b	0.18122213
131	0x3e472123	0.19446234
132	0x3d958fdd	0.0730283
133	0x3dad07be	0.08448742
134	0x3e8ee03d	0.27905455
135	0x3daa4eff	0.083158486
136	0xbccf4c17	-0.025304837
137	0xbe0edd6f	-0.13951658
138	0xbe1a6dc0	-0.15080929
139	0x3d98d3f4	0.07462302
140	0xbd12a558	-0.035802215
141	0x3d9a7676	0.07542126
142	0xbe134ff1	-0.14385964
143	0xbe14e272	-0.14539507
144	0xbd6e3efe	-0.058165543
145	0x3e544312	0.2072871
146	0xbd8968a3	-0.06709411
147	0x3bb6246f	0.0055585424
148	0xbe0966fc	-0.13418192
149	0xbe117f4f	-0.1420872
150	0x3e810503	0.25199136
151	0x3da39247	0.079868846
152	0x3e4b6b31	0.19865109
153	0xbe70c467	-0.23512422
154	0xbea161f0	-0.31520033
155	0x3dc326bd	0.09528873
156	0x3d1e842b	0.038700264
157	0x3ed27720	0.4110651
158	0x3de2b0c9	0.11068875
159	0x3d3094f1	0.04311079
160	0xbe9bfda2	-0.30466944
161	0x3e059665	0.13045652
162	0x3e75b1e9	0.23993649
163	0x3ec43840	0.38324165
164	0x3e0c0adb	0.13676016
165	0xbe3d3692	-0.18477848
166	0xbea065f4	-0.31327784
167	0xbc910c89	-0.017706173
168	0xbd9929df	-0.074786894
169	0x3e092e43	0.13396554
170	0xbcfbd0f2	-0.030739281
171	0xbd9e08a2	-0.0771649
172	0xbe9f2263	-0.31080922
173	0xbbc9e1f7	-0.0061609703
174	0x3df6980c	0.120407194
175	0x3e70efa4	0.23528916
176	0x3e8cc9ff	0.2749786
177	0xbe9efeb0	-0.31053686
178	0xbe8bd0f2	-0.2730785
179	0xbe255521	-0.16145755
180	0xbd96bd9b	-0.07360383
181	0x3ea27fa0	0.31737995
182	0xbe1f77e3	-0.15573077
183	0xbe9a80dc	-0.30176437
184	0xbc069b44	-0.008215729
185	0xbcab4ec6	-0.020911586
186	0x3e9cc0b3	0.30615768
187	0x3db7a126	0.089662835
188	0xbe4352d3	-0.19074564
189	0x3e106bb7	0.1410359
190	0x3d5706e0	0.05249679
191	0x3e034ed7	0.12823044
192	0x3e3f8054	0.18701297
193	0x3e82b407	0.25527975
194	0xbd5e7634	-0.054311946
195	0x3c40f6c8	0.011777587
196	0xbe254295	-0.1613868
197	0xbe0d4337	-0.13795172
198	0x3c6e1178	0.014530532
199	0xbe088847	-0.13333236
200	0x3e832019	0.25610426
201	0x3e339d3a	0.17540446
202	0x3e88cf37	0.26720592
203	0xbdb0ce67	-0.08633118
204	0xbe68ef5d	-0.2274756
205	0x3d95630d	0.07294283
206	0x3ede3462	0.4339934
207	0xbd1a955a	-0.03774009
208	0xbe3cdd7c	-0.18443865
209	0xbe107ee8	-0.14110911
210	0x3ec48647	0.38383695
211	0x3ea6839d	0.32522288
212	0xbd02e7f6	-0.031959496
213	0xbecf974a	-0.40545112
214	0xbe419efa	-0.18908301
215	0x3e462334	0.19349366
216	0x3e7699b3	0.24082069
217	0xbe6abb18	-0.22922933
218	0xbea864d8	-0.32889438
219	0xbe985c1b	-0.2975777
220	0x3dd8c704	0.10584834
221	0x3e82da3f	0.25557134
222	0xbe2295b1	-0.15877415
223	0xbe97254a	-0.29520637
224	0xbd68937a	-0.05678127
225	0x3e7dec26	0.24797115
226	0x3ee22ad6	0.44173306
227	0x3dc07d5a	0.09398909
228	0xbe175fec	-0.14782685
229	0xbef06b73	-0.46956977
230	0x3b20a8a0	0.002451457
231	0x3f01853a	0.5059391
232	0x3ea2f701	0.31829074
233	0x3e2ea31e	0.17054412
234	0xbd9f66b1	-0.07783259
235	0xbe8fb4c7	-0.2806761
236	0x3e0018c3	0.12509446
237	0x3f00a520	0.5025196
238	0x3e8c8a7b	0.27449402
239	0xbdad82df	-0.08472227
240	0xbd008344	-0.031375185
241	0xbd456198	-0.048188776
242	0x3e8cca79	0.27498224
243	0x3da87ab5	0.082265295
244	0x3d914edf	0.070951216
245	0xbe979358	-0.29604602
246	0xbe933513	-0.2875143
247	0x3dc451a8	0.09585887
248	0x3ebf7857	0.373965
249	0x3e24fdba	0.16112414

conv1.bias f4 [10]
0	0xbcbc327c	-0.022973292
1	0xbd909926	-0.07060461
2	0xbd8e1003	-0.06936648
3	0xbd51e4b0	-0.051243484
4	0x3d58dde4	0.052945986
5	0x3d809ad5	0.06279532
6	0xbdb8732f	-0.090063445
7	0x3e457fc8	0.19287026
8	0xbdd1ad35	-0.10238115
9	0x3db3e6a8	0.087842286

conv2.weight f4 [20, 10, 5, 5]
0	0x3bc57496	0.006025861
1	0x3c2823f9	0.010262483
2	0xbbee4df5	-0.007272477
3	0x3d2c643c	0.04208778
4	0x3d40c713	0.047064852
5	0x3d989510	0.074503064
6	0xbd008d77	-0.03138491
7	0xbda926bd	-0.08259342
8	0x3c14f7b4	0.00909226
9	0x3d68eb27	0.056864884
10	0x3d11b15c	0.035569534
11	0xbd1235cc	-0.035695836
12	0xbd1ca2ca	-0.038241185
13	0xbdbaba4a	-0.09117563
14	0xbcfd55c9	-0.030924695
15	0xbc26b603	-0.010175231
16	0xbc2557e5	-0.0100917565
17	0xbd1d7774	-0.038443998
18	0xbd223b1a	-0.039607145
19	0xbcd53532	-0.026026342
20	0x3ca28a55	0.019841352
21	0x3b89b96b	0.0042030117
22	0x3dc3cc75	0.095604815
23	0xbd2150c0	-0.03938365
24	0x3cc0fd9e	0.023558434
25	0xbd68ef16	-0.056868635
26	0xbcb87d78	-0.022520766
27	0xbb884f75	-0.0041598626
28	0xbda823f6	-0.08209984
29	0x3c70f4fe	0.014706848
30	0xbd0d4653	-0.034490895
31	0xbb4673bf	-0.0030281392
32	0xbc50ffc3	-0.012756291
33	0xbd2c68a6	-0.042091988
34	0xbcaae8e9	-0.020863013
35	0xbd8236ed	-0.063581325
36	0xbc5ced4e	-0.013484312
37	0xbd75751b	-0.059926134
38	0xbc5089bc	-0.012728151
39	0x3d1baa4e	0.038004212
40	0xbd974c58	-0.07387608
41	0xbcf5f5ef	-0.030024497
42	0xbcd78ccf	-0.02631226
43	0x3c5579fc	0.013029572
44	0x3db513ff	0.088417046
45	0xbd8febc5	-0.07027391
46	0x3ca6a23a	0.020341028
47	0x3cfb99f3	0.030713057
48	0x3d609fd9	0.054839943
49	0x3e01ab2e	0.12662956
50	0xbcaf71ce	-0.021416571
51	0x3d98299c	0.07429811
52	0x3dccabde	0.099937186
53	0xbd806834	-0.06269875
54	0x3c1a19aa	0.009405533
55	0xbb0fdfdb	-0.0021953497
56	0xbcb8e891	-0.022571834
57	0x3d99907e	0.07498263
58	0x3dd54278	0.104130685
59	0x3ddf9e50	0.109188676
60	0x3d768ead	0.06019466
61	0x3ca27c40	0.019834638
62	0x3d63e44f	0.055637654
63	0x3e10ee19	0.14153327
64	0x3d681c99	0.056667898
65	0x3d5e1acc	0.054224774
66	0xbda2fb52	-0.07958092
67	0xbc929d9a	-0.017897416
68	0x3da94072	0.08264245
69	0x3dc39afb	0.095510446
70	0xbd5720bd	-0.052521456
71	0x3d1aa918	0.037758917
72	0xbd8af714	-0.06785408
73	0x3cefae8f	0.02925804
74	0x3d871bc7	0.06597095
75	0x3d245774	0.040122464
76	0x3c2c2bd6	0.010508498
77	0x3b807ada	0.003920895
78	0x3d3d8d2d	0.046277214
79	0x3d23beba	0.039976813
80	0x3d0e963e	0.03481125
81	0x3c3b9fba	0.011451656
82	0xbd04a421	-0.032383088
83	0x3df7684d	0.12080441
84	0x3dd76d05	0.10518841
85	0x3d11589a	0.035484888
86	0xbd3a3687	-0.045462158
87	0x3d0f34c5	0.034962434
88	0x3daf50d1	0.085603364
89	0x3d80d7bc	0.06291148
90	0xbd3957a7	-0.045249607
91	0xbd95076c	-0.07276806
92	0xbd4fd1ae	-0.050737076
93	0xbccd2004	-0.02503968
94	0xbcbfcd11	-0.023413213
95	0xbc3ce767	-0.01152978
96	0xbd8aa0e0	-0.06768966
97	0xbc91d2ce	-0.017800715
98	0xbd8b405b	-0.06799384
99	0x3c204ed2	0.009784417
100	0xbd4d26fe	-0.050086014
101	0x3d0e7ea1	0.03478873
102	0xbd6d3b3b	-0.057917815
103	0x3cd136b0	0.025538772
104	0x3c6e74b6	0.014554193
105	0xbd8909c0	-0.06691313
106	0xbdafa641	-0.08576632
107	0xbd83e395	-0.06439892
108	0xbd54a602	-0.05191613
109	0xbc2012c0	-0.009770095
110	0xbdbc948d	-0.09208021
111	0xbd96e3c2	-0.0736766
112	0xbe0b5a43	-0.13608651
113	0xbc782310	-0.015145078
114	0xbd08b293	-0.033373427
115	0xbd43dd2b	-0.047818344
116	0xbe029ee5	-0.12755926
117	0xbe132339	-0.14368905
118	0xbd75d4a7	-0.060017254
119	0x3dc913e6	0.098182485
120	0xbd17cc06	-0.037059806
121	0xbdaace72	-0.083401576
122	0xbdbbdce9	-0.09172995
123	0xbdc465a5	-0.095897
124	0xbc396083	-0.011314514
125	0x3d7f8a9d	0.06238805
126	0xbcb882e4	-0.022523351
127	0x3cad5731	0.02115974
128	0x3cf33807	0.029689802
129	0x3dac592c	0.08415446
130	0x3d4c5f37	0.04989549
131	0x3be0027d	0.006836234
132	0xbdbcec40	-0.092247486
133	0x3c725d20	0.014792711
134	0x3e08ab54	0.13346606
135	0x3d67b3e5	0.056568045
136	0xbd6f1c7c	-0.058376774
137	0xbd26a296	-0.040682398
138	0xbd87bb6d	-0.066275455
139	0xbca2c82e	-0.019870844
140	0xbd14f250	-0.0363639
141	0xbdac0216	-0.08398835
142	0xbd847e70	-0.064694285
143	0xbd729fc2	-0.05923439
144	0xbd293613	-0.041311335
145	0x3bfc1f97	0.0076941955
146	0xbc4bfb6e	-0.012450082
147	0xbd87269b	-0.0659916
148	0xba821c35	-0.0009926619
149	0x3d69bb1c	0.057063207
150	0xbb0bb6b6	-0.002131862
151	0x3c8fd8bf	0.017559407
152	0x3d4311b2	0.047624297
153	0xbdc7d52a	-0.09757455
154	0xbdc679b7	-0.09691184
155	0xbd5e5cd3	-0.054287743
156	0xbd4a8e39	-0.04945204
157	0xbd6aa17b	-0.057282906
158	0xbcc60462	-0.024172012
159	0xbdb1a017	-0.08673113
160	0x3c823ffc	0.01589965
161	0xbdb146a4	-0.08656052
162	0xbd7757a0	-0.0603863
163	0xbba49dbf	-0.0050236876
164	0x3d04a391	0.03238255
165	0x3ba58e98	0.005052399
166	0xbd9d9c6b	-0.0769585
167	0xbd9ff865	-0.07811049
168	0x3d8d6abf	0.06905126
169	0x3dd892d3	0.105748795
170	0x3d615299	0.055010412
171	0xbcf127c5	-0.029437909
172	0xbd336222	-0.04379476
173	0xbd29a458	-0.041416496
174	0xbd187e62	-0.037229903
175	0xbc389c42	-0.0112677235
176	0x3bcf3807	0.0063238177
177	0x3c92947f	0.017893074
178	0xbdd01d7f	-0.10161876
179	0xbd6d6b43	-0.05796362
180	0x3da21208	0.079135954
181	0x3d9e8bd7	0.07741516
182	0xbc214cd0	-0.009844974
183	0xbd10b167	-0.035325434
184	0xbde20f27	-0.11038046
185	0x3cb3724c	0.021905087
186	0x3d587495	0.052845556
187	0xbd8c00a7	-0.06836062
188	0xbd0ba271	-0.034090463
189	0x3bde98f6	0.0067931367
190	0x3d85ad6c	0.06527218
191	0x3a150e5f	0.00056860404
192	0xbd4a3d4f	-0.049374875
193	0xbcfc933a	-0.030831922
194	0x3def7761	0.116926916
195	0x3dae00b2	0.08496226
196	0x3c590e8a	0.013248095
197	0x3d01a040	0.031646967
198	0xbcefc14b	-0.029266974
199	0x3d2b56c2	0.041830786
200	0x3dde2a3c	0.10847899
201	0x3cd9b83c	0.026577108
202	0x3dab88b6	0.08375685
203	0x3c5cd58a	0.013478646
204	0xbdbc2402	-0.091865554
205	0x3dcab2e9	0.09897406
206	0x3d89b675	0.06724254
207	0x3c3b4b58	0.011431538
208	0x3c7df85d	0.015501109
209	0x3da7e953	0.081988
210	0x3e132b64	0.14372021
211	0x3db1b1c2	0.08676483
212	0x3baf9c9d	0.005359246
213	0xbcb5d890	-0.022197992
214	0x3d5d05cc	0.053960606
215	0x3da94f34	0.0826706
216	0x3d1d1c91	0.03835732
217	0xbd6bec87	-0.057598617
218	0xbd6f0212	-0.058351584
219	0xbc5acbbe	-0.01335424
220	0xbcd784ef	-0.026308505
221	0xbd784df7	-0.060621228
222	0xbcdb6290	-0.026780397
223	0x3d059763	0.032615077
224	0xbbd7f7a0	-0.0065907985
225	0x3d68af1a	0.056807615
226	0xbd39af53	-0.045333218
227	0x3d19acf2	0.03751845
228	0xbd2cfdf0	-0.04223436
229	0xbdd398ea	-0.103319004
230	0x3cb7f668	0.022456363
231	0xbda14cd2	-0.078759804
232	0xbd7b963e	-0.06142258
233	0xbd29a673	-0.041418504
234	0xbd34c510	-0.044133246
235	0xbc151f70	-0.009101734
236	0xbd6e4e03	-0.058179867
237	0xbda0683e	-0.078323826
238	0xbc968630	-0.018374532
239	0x3d8048f8	0.06263918
240	0xbd20bcf7	-0.03924271
241	0xbd60f2b6	-0.054918967
242	0xbd8e94bc	-0.069619626
243	0x3ca5544f	0.020181803
244	0x3e0aa6c2	0.13540176
245	0x3d237261	0.039904002
246	0x3da4ebc2	0.0805278
247	0x3c99d7be	0.018779632
248	0xbd6bb48f	-0.05754524
249	0xbbc3e51a	-0.005978239
250	0x3c41ff75	0.011840691
251	0xbc85a561	-0.01631421
252	0xbca20b70	-0.019780844
253	0xbd0dd914	-0.03463085
254	0xbd00c7a9	-0.03144041
255	0xbc31d7b2	-0.010854648

conv2.bias f4 [20]
0	0xbc957423	-0.018243855
1	0xbb93dd2a	-0.004512449
2	0xb9bd90ff	-0.0003615692
3	0xbc90f7a6	-0.017696213
4	0x3c390850	0.011293486
5	0x3ca8dc40	0.020612836
6	0x3d223d96	0.039609514
7	0x3d88112e	0.06643902
8	0xbbc0d1ef	-0.005884401
9	0xbc69c42c	-0.014267962
10	0xbcaf396f	-0.021389691
11	0xbd5968ba	-0.05307839
12	0xbd3802c9	-0.04492453
13	0xbd37e911	-0.044900004
14	0xbd2b90de	-0.041886203
15	0x3d858de3	0.06521203
16	0x3cd018f2	0.02540252
17	0x3cd91540	0.02649939
18	0xbd64cac5	-0.05585744
19	0xbc3b4732	-0.0114305485

fc1.weight f4 [50, 320]
0	0xbc8cf098	-0.017204568
1	0x3cd37795	0.025813857
2	0x3dd1c9d2	0.10243572
3	0x3d1e516c	0.03865187
4	0xbbb160a4	-0.005413132
5	0xbd03c177	-0.032166924
6	0x3cb7c29f	0.02243167
7	0x3d228033	0.03967304
8	0xbb388860	-0.0028157458
9	0xbd06c76a	-0.03290502
10	0x3b000914	0.001953666
11	0xbd456915	-0.048195917
12	0xbc7957e5	-0.01521871
13	0x3d6561e9	0.056001578
14	0x3c5340b8	0.012893848
15	0xbc8b2069	-0.016983228
16	0x3d4dd9df	0.050256606
17	0x3d754bb2	0.05988664
18	0x3d8d5752	0.06901421
19	0xbcefb35f	-0.029260335
20	0x3c8e8acd	0.01740017
21	0xbdb9f93c	-0.09080741
22	0xbd210090	-0.039307177
23	0xbd6a15ae	-0.05714958
24	0xbd270304	-0.04077436
25	0xbc2f8adc	-0.010714259
26	0xbd15d521	-0.03658021
27	0x3d5389de	0.051645152
28	0xbc9803eb	-0.018556556
29	0x3d0716ba	0.032980658
30	0xbc6b0f1a	-0.014346862
31	0xbd1e5297	-0.038652983
32	0x3db13843	0.08653309
33	0xbdb0aad7	-0.08626335
34	0xbdc21076	-0.09475796
35	0xbd873d53	-0.066034935
36	0x3c8cbc06	0.0171795
37	0xbce4f746	-0.02794994
38	0xbc0d4855	-0.008623202
39	0x3cf1c1c9	0.02951135
40	0x3cfbafd5	0.030723492
41	0x3d3dc681	0.046331886
42	0x3cf56376	0.029954653
43	0x3c195d7f	0.00936067
44	0xbd9d45b2	-0.07679309
45	0x3d3142bd	0.043276537
46	0xbcbb3bf8	-0.022855744
47	0xbd3338fa	-0.04375551
48	0x3c8e7a1e	0.017392214
49	0xbd46e792	-0.048560686
50	0xbd93cc50	-0.07216704
51	0x3c6dfc92	0.0145255495
52	0x3cde940e	0.027170207
53	0x3d380bdc	0.044933185
54	0x3cc86422	0.02446181
55	0x3c390b35	0.011294176
56	0xbd63138a	-0.055438556
57	0x3caa635d	0.020799333
58	0xbd3811b6	-0.044938765
59	0xbc32b96a	-0.010908464
60	0x3b2da6e1	0.0026497173
61	0xbd56892d	-0.052376915
62	0x3d60b112	0.054856367
63	0xbd6ce500	-0.05783558
64	0xbbace8e4	-0.005276786
65	0xbd8d0cdf	-0.068872206
66	0xbbbeb8a2	-0.00582035
67	0xbbbbc756	-0.00573055
68	0x3d824eca	0.06362684
69	0x3c6a0b0f	0.014284863
70	0x3cf06cf3	0.029348826
71	0x3c96c435	0.018404106
72	0x3d527685	0.05138256
73	0x3cdba029	0.026809769
74	0xbc42b08a	-0.0118829105
75	0x3d9a3aaa	0.075307205
76	0xbcd78d01	-0.026312353
77	0xbd048614	-0.03235443
78	0xbd215713	-0.03938968
79	0xbc055cee	-0.008139832
80	0xbd1baaa2	-0.038004525
81	0xbd389564	-0.045064345
82	0xbdaa6065	-0.08319167
83	0xbd5fd291	-0.05464417
84	0x3ac3f70c	0.0014950945
85	0xbb196434	-0.0023405673
86	0xbc83d98a	-0.016094942
87	0x3cecd264	0.028908916
88	0x3da84d5a	0.08217879
89	0x3acf558e	0.0015818344
90	0xbd077c6d	-0.033077646
91	0x3cd96d33	0.026541328
92	0x3ce85ce9	0.028364616
93	0x3d1b6082	0.037933834
94	0x39ef1857	0.00045603767
95	0x3b732cd2	0.0037105572
96	0xbca236f5	-0.019801596
97	0x3d0e3c39	0.0347254
98	0x3cadffd3	0.02124015
99	0x3d5da71a	0.05411444
100	0x3d3f99aa	0.046777405
101	0xbd972cc7	-0.073815875
102	0x3bd667ef	0.0065431516
103	0x3bcf3540	0.0063234866
104	0x3cd24a64	0.025670238
105	0x3cb50070	0.022094935
106	0x3d1011b8	0.035173148
107	0xbd2a73bd	-0.041614283
108	0xbd3b4873	-0.04572339
109	0xbd6e3d3d	-0.05816387
110	0xbbd78d32	-0.006578111
111	0x3c5f4ce7	0.013629175
112	0x3d4c9d19	0.049954507
113	0x3d7c3a5b	0.06157909
114	0x3d2a9957	0.041650143
115	0xbd6db540	-0.05803418
116	0xbd557d2f	-0.052121338
117	0xbb2d1faf	-0.002641659
118	0xbc149fb9	-0.009071284
119	0x3d40bed4	0.047056988
120	0xbc585dc5	-0.01320595
121	0xbcf402d0	-0.029786497
122	0xbcf8bcdb	-0.03036349
123	0xbc8a80e3	-0.016907161
124	0x3a80f4e9	0.0009838614
125	0x3cb516af	0.022105543
126	0xbd40d1b1	-0.047074977
127	0x3c80cf36	0.015723806
128	0x3dc4b330	0.0960449
129	0x3d83e839	0.06440777
130	0x3d159ce6	0.036526583
131	0x3d7607f8	0.060066193
132	0x3d48eabd	0.04905199
133	0x3d7a8d7f	0.061170097
134	0xbcdd2be1	-0.026998462
135	0xbd3aa572	-0.045567937
136	0x3d2f36f0	0.042777
137	0xbcf26fb7	-0.029594285
138	0xbc6d9d58	-0.014502846
139	0x3c26d359	0.010182225
140	0xbbc5b4d1	-0.006033518
141	0xbd3b406d	-0.045715738
142	0xbd0e7d67	-0.03478756
143	0xbd83ca40	-0.064350605
144	0xbd70ec5a	-0.058819152
145	0xbdc016e4	-0.09379366
146	0xbdf7c68e	-0.12098418
147	0xbd01dc0e	-0.031704
148	0xbd6cf24d	-0.057848264
149	0xbd0a6e90	-0.033796847
150	0xbdce686d	-0.100785114
151	0xbdc6cb97	-0.097068004
152	0x3d54c87f	0.05194902
153	0xbd203f2c	-0.039122745
154	0x3c881e6e	0.016616073
155	0x3d42735c	0.047473297
156	0x3d61f4e5	0.05516519
157	0x3d05294d	0.03251009
158	0x3cffdf22	0.031234328
159	0x3c0b2eeb	0.008495073
160	0xbd03db42	-0.032191522
161	0xbe1a968e	-0.15096495
162	0xbe0e0e34	-0.13872606
163	0xbd5297bd	-0.05141424
164	0xbbf15383	-0.0073646917
165	0x3ba5afa8	0.0050563402
166	0x3d53b858	0.051689476
167	0x3d4cafca	0.049972333
168	0x3e03224f	0.12806056
169	0xbc9480d7	-0.018127842
170	0x3d313e16	0.0432721
171	0x3c24bf68	0.0100554
172	0xbcc2aa4d	-0.023762846
173	0xbb7ab929	-0.0038257337
174	0x3d0ccf27	0.034377243
175	0x3c99e116	0.018784087
176	0x3b4238c2	0.002963588
177	0xbdd72db3	-0.10506763
178	0xbdb9d878	-0.09074491
179	0xbc866f75	-0.016410569
180	0x3bc2e3d2	0.0059475685
181	0xbdd1f131	-0.10251082
182	0xbdfe8aec	-0.12428841
183	0xbd8b37de	-0.06797765
184	0x3c94366d	0.018092358
185	0xbbfce3cb	-0.0077175847
186	0x3c5f74dc	0.013638701
187	0x3d218fdc	0.039443836
188	0x3d2d51f4	0.042314485
189	0x3d26346d	0.04057734
190	0x3c70cc44	0.014697138
191	0xbc5c9394	-0.01346292
192	0x3b1c0804	0.0023808489
193	0xbca36cfc	-0.019949429
194	0x3cdf3b34	0.02724991
195	0x3c462c48	0.012095518
196	0xbbade6ef	-0.0053070704
197	0xbcef2a48	-0.029194966
198	0xbd03682b	-0.032081764
199	0xbd59e796	-0.053199373
200	0x3d44f0fe	0.04808139
201	0xbccd94b9	-0.02509533
202	0xbcae2078	-0.021255717
203	0xbb3456ba	-0.0027517513
204	0x3c7bfbad	0.015379828
205	0xbd14bbc1	-0.03631187
206	0x3d30ce35	0.043165404
207	0x3c77a181	0.015114189
208	0xbc835b27	-0.016034676
209	0xbd2ab6a1	-0.041678075
210	0xbd9005ae	-0.07032333
211	0xbd6cd082	-0.057816036
212	0x3dc4a447	0.09601646
213	0xbd675d28	-0.056485325
214	0x3afc02ad	0.0019226872
215	0x3d3bbb98	0.0458332
216	0x3d4e7ca1	0.050411824
217	0x3d3d2a46	0.046182893
218	0x3d6944b6	0.056950293
219	0x3b08e8ec	0.0020890785
220	0xbda0d56a	-0.078532055
221	0xbb08e59c	-0.002088881
222	0xbd2787c1	-0.04090095
223	0xbcd97908	-0.02654697
224	0x3d7a00f7	0.061036076
225	0xbda11d9f	-0.07866978
226	0xbd6fb01c	-0.05851756
227	0xbd899f31	-0.067198165
228	0xbd535d09	-0.051602397
229	0xbd736824	-0.059425488
230	0xbda2c16f	-0.07947051
231	0x3cfca4e5	0.030840347
232	0x3d4f437a	0.05060146
233	0xbc0a3772	-0.008436071
234	0x3cb026f3	0.021502947
235	0x3d9761da	0.073917106
236	0x3d4cd5c4	0.05000855
237	0x3ac6a63d	0.0015155744
238	0x3bef0e0a	0.0072953748
239	0x3d5a052f	0.0532276
240	0xbd83bc01	-0.06432343
241	0xbda74af0	-0.0816859
242	0xbdcc305a	-0.0997016
243	0xbba93410	-0.005163677
244	0xbd8b095e	-0.06788896
245	0xbdabb2e9	-0.08383734
246	0xbaedf82a	-0.0018155624
247	0xbd52b62a	-0.051443256
248	0x3cdf6138	0.027268037
249	0xbcb586fb	-0.02215909
250	0x3d04e786	0.03244736
251	0x3c6a4491	0.014298574
252	0x3cd032fa	0.025414933
253	0x3a315f96	0.00067662576
254	0xbc325312	-0.010884063
255	0x3d40b08d	0.047043372

fc1.bias f4 [50]
0	0xbd0d3ff5	-0.034484822
1	0x3d7cb392	0.06169469
2	0xbc4ba009	-0.012428292
3	0x3d2ccf6a	0.042189993
4	0xbcc936d2	-0.024562273
5	0x3d49b75d	0.049247134
6	0xbd440591	-0.04785687
7	0x3db19dd4	0.086726815
8	0x3d216c9b	0.039410215
9	0x3dcdcb92	0.100485936
10	0x3d6358f6	0.05550476
11	0x3d2eae13	0.04264648
12	0xbcc8f52c	-0.02453097
13	0x3d62826f	0.055300172
14	0xb9afe561	-0.00033549502
15	0x3bf37e3c	0.00743082
16	0x3c8504f1	0.016237708
17	0x3d835bd7	0.064140014
18	0xbcbed8a9	-0.023296671
19	0x3d935e0e	0.07195674
20	0x3d01ca34	0.031686977
21	0x3d9ecd70	0.07754028
22	0xbb8b9e9f	-0.0042608525
23	0x3d6b9ee1	0.057524566
24	0xbcc579b0	-0.024105877
25	0x3d476147	0.048676755
26	0x3d2bb2b9	0.04191849
27	0x3d61f985	0.0551696
28	0x3db57e3f	0.0886197
29	0x3d6b9db8	0.05752346
30	0x3d28cd6f	0.04121154
31	0x3d9bdf46	0.076109454
32	0x3d9a446b	0.07532581
33	0xbcc43272	-0.023949835
34	0x3d2ce005	0.04220583
35	0xbc142695	-0.009042402
36	0x3d9ba236	0.07599299
37	0x3b39ec1f	0.00283695
38	0x3dae7c06	0.08519749
39	0xbbdd27e2	-0.006749139
40	0x3d3a11ec	0.045427248
41	0x3c47752d	0.012173933
42	0x3da88a4e	0.082295045
43	0x3bbde6d7	0.0057953405
44	0x3e0794dd	0.1324038
45	0x3d436cab	0.047711056
46	0xba32f1c0	-0.00068261847
47	0xbcc447a6	-0.023959946
48	0x3c4dcbca	0.012560794
49	0x3d15187a	0.036400296

fc2.weight f4 [10, 50]
0	0x3c6241d7	0.013809643
1	0x3e499df7	0.19689165
2	0x3d15d01e	0.03657543
3	0xbdcadc2e	-0.09905277
4	0xbdb36ce4	-0.087610036
5	0xbdaad449	-0.083412714
6	0xbdfdbbe3	-0.12389352
7	0x3e4007fa	0.18753043
8	0xbe2f4c70	-0.17119002
9	0xbe3664c7	-0.17811881
10	0xbdf183f2	-0.11792745
11	0xbe470103	-0.1943398
12	0x3db9f2b0	0.09079492
13	0x3b1e0bdb	0.0024115953
14	0xbd921608	-0.071331084
15	0xbe068388	-0.13136113
16	0xbcddc58e	-0.02707174
17	0xbe4d8d45	-0.20073421
18	0xbe1e1a11	-0.15439631
19	0x3dfd84e2	0.12378861
20	0xbdd22f82	-0.10262968
21	0x3e7ee756	0.24892935
22	0xbdcc3215	-0.0997049
23	0x3e61396e	0.21994564
24	0xbdeb02db	-0.11475154
25	0x3e3d0d10	0.18462014
26	0xbe44b597	-0.19209896
27	0x3e57ca63	0.21073298
28	0x3e4dad24	0.20085579
29	0xbe13be37	-0.1442803
30	0xbddf0ff5	-0.108917154
31	0xbd4710d2	-0.048600025
32	0xbe1e2656	-0.15444311
33	0x3a331a96	0.000683227
34	0xbdc60fdb	-0.09670993
35	0xbdba5128	-0.090975106
36	0x3e506fa6	0.2035509
37	0xbdf28d1e	-0.11843322
38	0xbe40a418	-0.18812597
39	0x3e83e316	0.2575919
40	0xbde6f295	-0.112767376
41	0x3e827e51	0.25486997
42	0xbdee88d3	-0.11647191
43	0xbde09e12	-0.109676495
44	0x3e7cf50f	0.24702857
45	0xbe7e5ef9	-0.24840917
46	0xbe87f69f	-0.26555344
47	0xbdd643a1	-0.10462118
48	0x3e62942a	0.22126833
49	0xbe36e25d	-0.17859788
50	0xbe1f14f6	-0.1553534
51	0xbe8616c5	-0.26189247
52	0x3e86e21d	0.26344386
53	0x3e274e47	0.16338454
54	0xbde00c05	-0.109397925
55	0xbc8b77a2	-0.017024819
56	0xbd6d4fff	-0.05793762
57	0x3e181f5e	0.14855716
58	0x3e0bb6b2	0.13643911
59	0x3e595103	0.2122231
60	0x3e4583b6	0.19288525
61	0xbe4d478b	-0.20046823
62	0x39e52ee1	0.0004371321
63	0x3e8a6341	0.2702885
64	0x3e55168a	0.20809379
65	0xbe122149	-0.1427051
66	0x3e25a790	0.16177201
67	0x3e329f90	0.17443681
68	0xbdbc0b8f	-0.09181892
69	0xbe8dfe05	-0.27732864
70	0x3e8a86c0	0.2705593
71	0xbe0b2599	-0.13588561
72	0xbe241e2c	-0.16027135
73	0xbde41713	-0.111372136
74	0xbe201291	-0.15632083
75	0xbe63e600	-0.22255707
76	0x3e4f8c12	0.20268276
77	0xbe29555c	-0.16536468
78	0xbdba0bbf	-0.09084272
79	0xbe253650	-0.16134
80	0xbe304fd8	-0.17217958
81	0x3e31e977	0.17374216
82	0x3e6ed7ba	0.2332448
83	0xbd22a20e	-0.03970533
84	0x3e2d5496	0.16926798
85	0xbdd32e11	-0.10311521
86	0xbe6859af	-0.22690462
87	0xbe65aedf	-0.2242999
88	0x3e166604	0.14687353
89	0xbe10ec91	-0.14152743
90	0xbe93de97	-0.2888076
91	0xbd613cd8	-0.054989666
92	0xbe39965b	-0.18123762
93	0x3e618f33	0.22027282
94	0x3e71119b	0.23541872
95	0xbe45a43a	-0.19300929
96	0x3dd65a90	0.10466492
97	0x3e391c7f	0.18077277
98	0xbe940584	-0.28910458
99	0xbdf3493e	-0.11879204
100	0xbc64cc30	-0.013964698
101	0x3e0d9c42	0.13829139
102	0xbd6af210	-0.057359755
103	0x3e21b884	0.15793043
104	0xbe505238	-0.20343864
105	0xbd44facb	-0.048090737
106	0xbd61398c	-0.05498652
107	0x3e213362	0.15742257
108	0x3e2665dd	0.16249795
109	0xbe4f6d75	-0.20256598
110	0x3e5c0c4b	0.21489064
111	0x3e003772	0.1252115
112	0xbd7ea56a	-0.06216947
113	0xbdc010f3	-0.09378233
114	0x3e151a66	0.14560851
115	0xbe2f6770	-0.17129302
116	0x3e3ccaf2	0.18436792
117	0xbde982e6	-0.1140192
118	0x3e1cba05	0.15305336
119	0xbb5cb9fe	-0.0033680196
120	0xbcfcf518	-0.030878589
121	0x3e54b490	0.20772004
122	0x3e5e20ef	0.2169225
123	0x3e37c79b	0.17947237
124	0xbd657371	-0.056018297
125	0xbdfcd359	-0.12344999
126	0x3e6533ae	0.22382995
127	0xbd6aa183	-0.057282936
128	0x3e13ce38	0.14434135
129	0xbd824b4b	-0.06362017
130	0xbddd4e8c	-0.10805997
131	0x3e31315a	0.17303982
132	0xbe2717ab	-0.16317622
133	0x3e38f693	0.1806281
134	0x3e48be76	0.19603905
135	0x3e515119	0.20441093
136	0xbd959e9f	-0.07305645
137	0xbe40c771	-0.18826081
138	0x3e07fd79	0.13280286
139	0x3e6f61d4	0.23377162
140	0xbe070128	-0.13184035
141	0xbe30710a	-0.17230621
142	0x3d66e79c	0.056373224
143	0xbe61c9e5	-0.22049673
144	0xbd829646	-0.06376319
145	0xbe5ddcf0	-0.21666312
146	0xbe6c397f	-0.23068808
147	0xbe5f4d10	-0.21806741
148	0xbde29e52	-0.110653535
149	0xbe1cf0f3	-0.1532629
150	0xbe07013f	-0.13184069
151	0xbdb748d3	-0.08949437
152	0xbdd1b32d	-0.10239253
153	0xbe3de519	-0.18544425
154	0xbdf85059	-0.121247
155	0x3e5cf515	0.21577866
156	0xbdc6399b	-0.09678956
157	0x3e285cc2	0.16441634
158	0x3e0ee396	0.13954005
159	0xbde0986d	-0.10966573
160	0x3e59e682	0.21279338
161	0x3d0b45d0	0.034002125
162	0x3d25963e	0.040426485
163	0xbc991ac3	-0.018689519
164	0xbe4be2fd	-0.19910808
165	0x3cebaed5	0.02876989
166	0x3e4b3410	0.19844079
167	0xbdadb9f4	-0.08482733
168	0x3e1e5317	0.15461384
169	0x3e098912	0.13431194
170	0xbe123d96	-0.14281306
171	0xbe160b19	-0.14652671
172	0x3e7bcd02	0.24589923
173	0x3c06bd56	0.008223852
174	0xbd40a1b7	-0.047029223
175	0x3e19e1b2	0.15027502
176	0xbdc202a3	-0.09473159
177	0xbe61d0f5	-0.22052367
178	0xbe31c860	-0.17361593
179	0x3e6a44e5	0.22877844
180	0xbd9e7be9	-0.07738478
181	0xbe5c7796	-0.21529993
182	0x3e89869d	0.26860514
183	0xbd8a3abf	-0.06749486
184	0x3e43b0ad	0.19110365
185	0xbd363b77	-0.044490304
186	0xbdfaefd3	-0.12252774
187	0xbd8abaa0	-0.06773877
188	0xbe430d0d	-0.19047947
189	0x3e70874f	0.23489116
190	0xbd377c3f	-0.044796225
191	0xbdee6fff	-0.11642455
192	0x3e86b210	0.26307726
193	0xbe2beecd	-0.16790314
194	0xbe355116	-0.17706713
195	0x3e66fb40	0.22556782
196	0x3e114a64	0.14188534
197	0x3e7496b7	0.23885618
198	0xbe858c15	-0.26083437
199	0xbcc5f12d	-0.024162853
200	0x3e976aa6	0.29573554
201	0xbc19e003	-0.009391787
202	0x3e5e1205	0.21686561
203	0xbe049d14	-0.12950546
204	0x3e7b4554	0.24538165
205	0x3e4f2c87	0.2023183
206	0x3e9a8cc6	0.30185527
207	0xbe82f170	-0.25574827
208	0xbe0992fb	-0.13434975
209	0xbdeab956	-0.11461131
210	0xbc9b88bb	-0.018986097
211	0x3df467e9	0.11933882
212	0x3cfb3a51	0.030667456
213	0x3e6f5232	0.23371199
214	0x3e3d7e36	0.18505177
215	0x3e29ac15	0.1656955
216	0xbe3af937	-0.1825913
217	0xbd489d2e	-0.048978023
218	0x3e13b60e	0.14424917
219	0xbeb1ed65	-0.3475143
220	0x3e68305e	0.226747
221	0xbd45ee46	-0.04832294
222	0xbc850603	-0.016238218
223	0xbe4a8571	-0.19777466
224	0xbd8a137b	-0.06741997
225	0xbe874aee	-0.26424354
226	0xbda135a9	-0.07871563
227	0xbe4bc224	-0.19898278
228	0x3e1bccdb	0.15214865
229	0xbde8bda7	-0.11364298
230	0x3e75b601	0.2399521
231	0x3e3633e7	0.17793237
232	0xbe239968	-0.15976489
233	0x3e51f4c0	0.20503521
234	0xbd7b6a08	-0.061380416
235	0x3ae58ada	0.0017512694
236	0xbe58c568	-0.21169055
237	0x3e14b2ce	0.14521334
238	0x3e078348	0.13233674
239	0xbd07b472	-0.03313107
240	0x3e3442fa	0.17603675
241	0xbe8d094e	-0.2754616
242	0x3e0a89f2	0.13529184
243	0x3e59c171	0.21265198
244	0xbe119c78	-0.14219844
245	0xbcfd260f	-0.030901937
246	0x3df0c8be	0.117570385
247	0x3d6739ac	0.056451485
248	0x3e193c5b	0.1496443
249	0x3e1b4279	0.15162076
250	0xbba0c929	-0.0049067927
251	0xbe953d47	-0.29148313
252	0x3dd91dea	0.10601409
253	0x3e281b41	0.16416647
254	0xbe391e30	-0.18077922
255	0x3e7a3aaf	0.24436449

fc2.bias f4 [10]
0	0x3e56535e	0.2093024
1	0x3e3e1921	0.18564273
2	0xbcb7be62	-0.022429649
3	0xbc03b8ef	-0.008039697
4	0xbd2d1c22	-0.042263158
5	0x3d1f4fa6	0.038894318
6	0xbd03a297	-0.03213748
7	0xbd90dd80	-0.07073498
8	0xbe8ebd58	-0.27878833
9	0xbe37e812	-0.17959622

localization.0.weight f4 [8, 1, 7, 7]
0	0xba995f65	-0.0011701403
1	0xbc7eac24	-0.015543971
2	0x3de868e6	0.11348133
3	0xbccccb94	-0.024999417
4	0xbdbf4312	-0.093389645
5	0xbd69c27a	-0.057070233
6	0xbce60bb2	-0.028081749
7	0x3d144f45	0.03620841
8	0xbd01e487	-0.03171208
9	0xbddca139	-0.10772938
10	0xbe667889	-0.22506918
11	0x3d1d614e	0.038422875
12	0x3c791edd	0.015205112
13	0xbd856484	-0.065133125
14	0x3c0f7fcd	0.008758497
15	0x3dfa436c	0.12219891
16	0xbdf57fb9	-0.11987252
17	0xbca75337	-0.020425422
18	0x3d04076a	0.032233633
19	0xbd96d34e	-0.07364522
20	0x3dadc0ad	0.084840156
21	0x3e1eb579	0.15498914
22	0xbc557e98	-0.013030671
23	0xbe198067	-0.14990388
24	0x3da1d331	0.0790161
25	0x3dd0ebd2	0.10201229
26	0x3d9d3fb3	0.07678165
27	0xbd603e30	-0.054746807
28	0x3e5fce14	0.21855956
29	0xbe6645d2	-0.22487572
30	0x3d2b4cae	0.041821174
31	0x3d578a1a	0.05262194
32	0xbd21dcd5	-0.039517242
33	0xbcfb510e	-0.030678298
34	0xbddc1cc0	-0.10747671
35	0x3e367ffc	0.1782226
36	0xbe474b72	-0.19462374
37	0x3c0908f5	0.008363952
38	0x3c38c308	0.011276968
39	0xbd9a10a2	-0.07522704
40	0xbd6255c1	-0.055257563
41	0x3bab0012	0.0052185142
42	0x3db5e3c3	0.08881333
43	0x3d75da3c	0.060022578
44	0x3d5c9dc2	0.053861387
45	0x3c6a2165	0.014290188
46	0xbca703c5	-0.02038754
47	0xbdb1cfc5	-0.08682207
48	0xbe1b0a3f	-0.15140627
49	0xbdd48a92	-0.10377993
50	0x3c995018	0.01871495
51	0xbdaa180c	-0.08305368
52	0xbe097c46	-0.13426313
53	0x3d7de28f	0.06198364
54	0xbcb4b60b	-0.022059461
55	0xbd9b596a	-0.07585414
56	0xbd0231a8	-0.031785637
57	0xbde21cd6	-0.11040656
58	0x39a0b6d9	0.0003065381
59	0xbc6f5ef7	-0.014610044
60	0x3da5b25a	0.080906585
61	0x3e06e8f1	0.13174798
62	0xbe3e4ba0	-0.18583536
63	0x3d6ba1de	0.057527415
64	0xbcc9c30b	-0.024629137
65	0x3d2edcfd	0.04269122
66	0x3e20b93d	0.15695663
67	0xbd6775ba	-0.056508757
68	0x3e18cdd6	0.1492227
69	0x3d5d9cba	0.054104544
70	0xbcd7a1aa	-0.026322205
71	0xbe444e49	-0.19170488
72	0x3e0ae92f	0.13565515
73	0x3c3b9376	0.011448732
74	0xbe304935	-0.17215426
75	0xbe241bc2	-0.16026214
76	0xbdb9f441	-0.09079791
77	0xbe760343	-0.24024682
78	0xb9bea912	-0.0003636559
79	0x3e4e5f11	0.20153452
80	0xbd83e0af	-0.06439339
81	0xbdef0cce	-0.11672364
82	0xbd1a4956	-0.037667595
83	0x3dd253df	0.102699034
84	0xbe2c3c51	-0.16819884
85	0xbd7ef369	-0.062243853
86	0x3e1b4d2f	0.15166162
87	0xbcf7ca54	-0.030247845
88	0x3c58b16d	0.013225895
89	0x3d4c9b07	0.049952533
90	0x3e284929	0.16434158
91	0x3c6bc32d	0.014389795
92	0xbde4e7e6	-0.111770436
93	0x3c4ba39a	0.012429142
94	0x3d1161c2	0.03549362
95	0xbdc80641	-0.09766818
96	0xbd458baa	-0.048228897
97	0xbd819e42	-0.063290134
98	0xbe3ad6d9	-0.1824602
99	0x3d00fc58	0.031490654
100	0xbd8f0f9a	-0.06985398
101	0xbe0b35bf	-0.13594721
102	0xbd4e8326	-0.05041804
103	0xbdcf4428	-0.10120422
104	0x3c91457d	0.01773333
105	0x3d2d6b28	0.04233852
106	0xbe674ffb	-0.22589104
107	0xbe463af6	-0.1935843
108	0xbe1ab6de	-0.15108821
109	0xbe69f7ff	-0.22848509
110	0xbbb9b8d9	-0.0056677875
111	0xbd73fe2d	-0.059568573
112	0xbda1814e	-0.07885991
113	0x3bacc9f3	0.0052730977
114	0xbd20b0fd	-0.03923129
115	0x3d2a58e1	0.041588668
116	0xbd5aac04	-0.053386703
117	0xbdc12509	-0.09430892
118	0xbdea651c	-0.11445066
119	0x3da0160e	0.078167066
120	0x3ca6ee21	0.02037722
121	0xbd2086b6	-0.03919097
122	0xbe1bc60c	-0.15212268
123	0xbd385fd3	-0.04501326
124	0xbdaefc0c	-0.08544168
125	0x3da48153	0.08032479
126	0xbcea336a	-0.02858897
127	0x3e3137ab	0.17306392
128	0x3ced28d9	0.028950142
129	0xb9c2dbd6	-0.00037166354
130	0x3c509e3f	0.012733041
131	0x3cd4f8d2	0.025997553
132	0xbe093106	-0.13397607
133	0x3d209b9b	0.039210897
134	0xbdb561b5	-0.08856527
135	0x3e0c91e8	0.13727534
136	0x3da1e548	0.0790506
137	0x3daae5fa	0.08344646
138	0x3d7374cb	0.059437554
139	0x3dcb561d	0.09928534
140	0x3d9130ca	0.07089384
141	0x3afe3c79	0.0019396684
142	0xbc9146fe	-0.017734047
143	0x3d6383bf	0.055545565
144	0xbd07d3ee	-0.033161096
145	0xbcce440b	-0.02517893
146	0x3da233c7	0.07920032
147	0x3bc8c8b4	0.0061274413
148	0x3d05d2fd	0.032671917
149	0xbcbb684e	-0.022876885
150	0x3ccc1866	0.024913978
151	0x3d9c569c	0.07633707
152	0x3c82de7f	0.015975235
153	0xbe0fd103	-0.14044575
154	0x3dff8530	0.124765754
155	0x3cb71cda	0.022352625
156	0xbca82a95	-0.020528117
157	0x3c140cde	0.009036271
158	0xbc451204	-0.012028221
159	0xbd06ea2d	-0.03293817
160	0x3d4ec158	0.050477356
161	0xbd93ad38	-0.07210773
162	0xbe0cd229	-0.13752045
163	0xbdfb866c	-0.12281498
164	0x3d1bff9a	0.038085558
165	0x3dc2db0c	0.09514436
166	0x3d57daac	0.052698776
167	0xbccb0826	-0.024784159
168	0xbeb3018c	-0.34962118
169	0xbd866795	-0.065627255
170	0x3d8fd852	0.07023682
171	0x3e59db1e	0.21274993
172	0xbcb0e7e9	-0.021594958
173	0x3cc03c70	0.023466319
174	0xbdbcc635	-0.092174925
175	0x3e60b676	0.21944603
176	0x3e074558	0.13210046
177	0x3dbd3886	0.092392966
178	0xbdc403fe	-0.09571074
179	0xbdf787f2	-0.120864764
180	0xbe0269e0	-0.127357
181	0x3b8757fc	0.0041303616
182	0x3dc739a9	0.09727795
183	0x3d9343bc	0.07190654
184	0x3c07cfa7	0.008289254
185	0xbc125ef7	-0.008933774
186	0x3c13befa	0.0090177
187	0x3d0ebb4c	0.03484659
188	0x3da1fa70	0.07909095
189	0xbbf7b1d1	-0.007559039
190	0x3abea033	0.0014543593
191	0xbd5af7f4	-0.053459123
192	0xbc705234	-0.014668036
193	0xbdd4b6ee	-0.103864536
194	0xbcc50f2c	-0.024055086
195	0xbd6c25db	-0.05765329
196	0xbd62a588	-0.055333644
197	0xbcbeface	-0.023312952
198	0x3d3b4b06	0.045725845
199	0xbd545863	-0.051842105
200	0x3ad98e2c	0.0016598157
201	0x3d2280e6	0.03967371
202	0xbd7c066e	-0.06152957
203	0x3e66c9c8	0.22537911
204	0x3d6b08a3	0.057381283
205	0xbdce583c	-0.10075423
206	0x3cabb6a3	0.020961111
207	0xbd41b858	-0.047294945
208	0xbdfbba90	-0.12291443
209	0x3d905a39	0.070484586
210	0x3def6044	0.11688283
211	0xbe0032e1	-0.12519409
212	0x3d8156f7	0.06315415
213	0xbcb6cc1a	-0.02231412
214	0x3abe7b73	0.001453264
215	0xbd269367	-0.040667918
216	0xbd8341dc	-0.06409046
217	0xbdc5c2c2	-0.09656288
218	0xbd3cd7ff	-0.046104427
219	0xbe56c4bc	-0.20973486
220	0xbda3ffe0	-0.08007789
221	0xbd3e6992	-0.0464874
222	0xbdd40fcb	-0.10354575
223	0xbe1681a9	-0.14697899
224	0xbdbde12d	-0.092714645
225	0xbe44375e	-0.19161746
226	0xbd5861ff	-0.05282783
227	0xbe294039	-0.16528405
228	0xbe3eb8de	-0.18625209
229	0xbdfe9440	-0.1243062
230	0xbe026202	-0.127327
231	0xbd4f9320	-0.05067742
232	0xbd16066c	-0.036627218
233	0xbe074d29	-0.13213028
234	0xbdf6882c	-0.120376915
235	0xbcaa9267	-0.020821763
236	0xbe357c37	-0.17723165
237	0xbc7928d9	-0.015207493
238	0xbc477edb	-0.012176241
239	0xbde87bdc	-0.11351749
240	0xbd4844fb	-0.04889391
241	0xbe135a40	-0.14389896
242	0xbd9151eb	-0.07095703
243	0xbdbae056	-0.0912482
244	0xbe4b13a4	-0.19831711
245	0x3bec49e5	0.0072109574
246	0xbdd814b8	-0.10550827
247	0xbca24bcc	-0.019811533
248	0x3d4bd38e	0.0497623
249	0x3d5dbf50	0.054137528
250	0x3d76f96d	0.060296465
251	0xbc406460	-0.011742681
252	0x3dd1a90e	0.10237323
253	0x3db4153a	0.08793111
254	0x3ba3f127	0.005003113
255	0x3de82495	0.113351025

localization.0.bias f4 [8]
0	0xbe2f913a	-0.17145243
1	0xbeb4f3f7	-0.3534238
2	0xbe8c6ca2	-0.2742663
3	0xbe82363e	-0.25432009
4	0xbe1289f1	-0.14310433
5	0xbe641713	-0.22274427
6	0xbe77eba7	-0.24210988
7	0xbe9edfdb	-0.31030163

localization.3.weight f4 [10, 8, 5, 5]
0	0xbd4c1f22	-0.049834378
1	0xbc9dad34	-0.019247629
2	0x3cc4a610	0.024004966
3	0x3da03b8a	0.07823856
4	0x3cc2c99e	0.02377778
5	0xbd6859d1	-0.05672628
6	0xbdaf9b3f	-0.08574533
7	0x3d95fc1f	0.07323479
8	0x3d28e3a8	0.041232735
9	0x3d0ebb75	0.03484674
10	0xbba4e4ea	-0.0050321715
11	0x3b9e966b	0.0048397086
12	0xbd16fa5a	-0.036859848
13	0xbd5c5b28	-0.05379787
14	0xbd079549	-0.033101354
15	0x3c8930a1	0.01674682
16	0xbccac34e	-0.024751332
17	0x3a3a4a6d	0.0007106427
18	0x3be8b59f	0.007101729
19	0x3c960abb	0.018315664
20	0xbd4a2277	-0.049349274
21	0x3c93b4ec	0.018030606
22	0x3d7f679b	0.062354665
23	0xbcf1edf7	-0.029532416
24	0x3c02df48	0.007987805
25	0xbd67909b	-0.05653439
26	0xbc571966	-0.013128614
27	0x3d3742f7	0.044741597
28	0xbc373dca	-0.011184165
29	0x3ca372fe	0.019952293
30	0x3d167675	0.036734063
31	0xb8eea6d6	-0.000113798
32	0xbb766e45	-0.0037602347
33	0x3b02729c	0.0019904738
34	0xbdc3f812	-0.095688
35	0x3c69f44f	0.014279439
36	0xbd6e73bd	-0.058215845
37	0xbdb9faef	-0.09081065
38	0xbc9a02a0	-0.01880008
39	0x3cf3daf6	0.029767495
40	0x3cb552e8	0.02213426
41	0x3d2751d1	0.04084951
42	0xbc827b6b	-0.01592799
43	0xbc1819cb	-0.009283493
44	0xbc9fce86	-0.019507658
45	0x3e2731d7	0.16327606
46	0x3da2cee5	0.07949618
47	0xbc40d3c9	-0.0117692435
48	0x3d3b4708	0.045722038
49	0x3c9322e3	0.017960971
50	0x3c9fc834	0.019504644
51	0x3d91767f	0.071026795
52	0xbdb507c3	-0.08839371
53	0x3cdc622c	0.02690228
54	0xbbe86eab	-0.007093271
55	0xbd2dd1eb	-0.04243652
56	0xbc9b0442	-0.018922929
57	0x3c4e3222	0.012585195
58	0x3dc25359	0.094885536
59	0x3d9443d4	0.072395
60	0x3dd89743	0.10575726
61	0x3dea8ee2	0.11453034
62	0x3da49ba7	0.08037501
63	0x3ce4dc86	0.027937185
64	0x3d952218	0.072818935
65	0xbc8fa961	-0.01753682
66	0xbd652217	-0.055940714
67	0xbe1ee707	-0.15517817
68	0x3c7a48a3	0.015276107
69	0x3c835bbc	0.016034953
70	0xbd66a7d0	-0.056312382
71	0xbd61d9ba	-0.05513928
72	0x3db5e78c	0.08882055
73	0xbd41f269	-0.04735032
74	0xbdced901	-0.10099984
75	0x3c001586	0.007817632
76	0x3d0d026b	0.034426134
77	0x3c1481f4	0.009064186
78	0xbce8310a	-0.028343696
79	0x3d39f8b0	0.045403183
80	0x3dbe3d3c	0.09289023
81	0xbd43a041	-0.047760252
82	0xbc9e4175	-0.019318322
83	0x3e2a3401	0.166214
84	0x3d19eccf	0.037579354
85	0xbc7b4110	-0.015335336
86	0xbe1147bf	-0.14187525
87	0x3df07154	0.117403656
88	0x3bbc56fa	0.005747673
89	0x3c845dfe	0.0161581
90	0x3d0dfbe9	0.03466407
91	0xbcf971ff	-0.030449865
92	0xbdef2f26	-0.11678915
93	0xbd57f34d	-0.052722264
94	0xbaed27ac	-0.0018093488
95	0x3c607c7c	0.013701554
96	0xbd7ecfee	-0.062210016
97	0x3d14e78f	0.036353644
98	0x3daf52ba	0.08560701
99	0x3d1eef01	0.03880215
100	0xbdddf59e	-0.108378634
101	0xbd2b9f8d	-0.041900206
102	0xbc965194	-0.018349446
103	0xbd897804	-0.06712344
104	0x3dc4e988	0.09614855
105	0xbdd1dd53	-0.10247292
106	0xbd9a2505	-0.07526592
107	0xbbb55e99	-0.0055349586
108	0x3cf28610	0.029604942
109	0x3c0b01b1	0.00848429
110	0xbe2500ad	-0.16113539
111	0x3d91efc5	0.071258105
112	0xbcf4e934	-0.029896356
113	0x3d667a4b	0.05626897
114	0xbc3f9841	-0.011694015
115	0x3bb2bd24	0.005454676
116	0x3dab0c8f	0.08352005
117	0xbdf40003	-0.11914065
118	0x3d74b277	0.05974051
119	0x3d76b41f	0.06023037
120	0xbdade2fd	-0.0849056
121	0xbe7aade8	-0.24480402
122	0xbea4256b	-0.32059798
123	0xbdff2345	-0.12457899
124	0x3d836b99	0.06417007
125	0xbdbf9b1f	-0.09355759
126	0xbd8d0ae8	-0.06886846
127	0xbcbc60ab	-0.022995314
128	0xbd36ba70	-0.044611394
129	0xbd301425	-0.04298796
130	0xbdf38024	-0.11889675
131	0xbd3ae037	-0.045623984
132	0xbb9a00f9	-0.004699823
133	0xbde2d535	-0.11075822
134	0x3d5229af	0.051309284
135	0x3d14e8b1	0.036354724
136	0xbb6ea91c	-0.0036416715
137	0x3d6c2b19	0.05765829
138	0xbbaffbe0	-0.005370602
139	0x3c67330a	0.01411129
140	0xbcc369df	-0.023854194
141	0xbd3d4d71	-0.046216432
142	0x3d63246c	0.055454656
143	0xbdea6062	-0.11444165
144	0xbd9d7139	-0.07687611
145	0xbd9adaac	-0.075612396
146	0x3cf8167a	0.030284155
147	0x3c4839de	0.012220828
148	0xbe00aed6	-0.12566695
149	0xbdb85e28	-0.09002334
150	0x3ce086c8	0.027408019
151	0x3cee1693	0.029063499
152	0xbcab29d5	-0.02089397
153	0xbd15b528	-0.036549717
154	0x3dc0bf6a	0.09411509
155	0x3d06ce5d	0.032911647
156	0x3c1eb466	0.009686565
157	0xbaf1d130	-0.0018449184
158	0xbdee6501	-0.11640359
159	0xbabf3679	-0.0014588378
160	0x3d46b488	0.04851201
161	0x3d23f009	0.040023837
162	0xbd388535	-0.04504891
163	0xbc2fc2ce	-0.010727597
164	0x3c786c78	0.01516258
165	0xbd5cf679	-0.053945992
166	0x3c101bff	0.008795737
167	0x3d9a67e0	0.07539344
168	0xbd295f40	-0.041350603
169	0x3cb73b50	0.02236715
170	0x3d9312eb	0.07181343
171	0x3e056bf3	0.1302946
172	0xbd87e452	-0.066353455
173	0xbda3e253	-0.08002152
174	0x3d059bef	0.032619413
175	0xbd3ac9d3	-0.04560263
176	0x3d3f6ebc	0.046736464
177	0xbd1d8cbd	-0.038464297
178	0xbd71dfb9	-0.05905125
179	0xbd7473f8	-0.05968091
180	0x3d019dc5	0.0316446
181	0xbb31e951	-0.0027147124
182	0x3b4a812e	0.003089975
183	0xbc4222c2	-0.011849107
184	0x3decbcdc	0.115594596
185	0xbd3db0ab	-0.04631106
186	0xbdc03801	-0.09385682
187	0xbc495fa0	-0.012290865
188	0x3d96945d	0.07352517
189	0x3d37639e	0.044772737
190	0xbb1c7dab	-0.0023878615
191	0x3da59c3a	0.080864385
192	0x3df715e4	0.12064722
193	0x3acf19b2	0.0015800504
194	0x3d03db54	0.03219159
195	0x3d95cc32	0.07314338
196	0xbd83acfc	-0.064294785
197	0x3ce34c9a	0.027746487
198	0xbd00f380	-0.03148222
199	0xbd5afa7c	-0.053461537
200	0x3ce32978	0.027729735
201	0x3d9c7eb3	0.076413535
202	0x3c709c44	0.014685694
203	0xbdc0c824	-0.09413174
204	0xbd8015bd	-0.06254146
205	0x3d3fd9d5	0.0468386
206	0x3d945ac5	0.072438754
207	0xbd0c13b1	-0.034198467
208	0xbc96ff89	-0.018432396
209	0x3c869f91	0.016433509
210	0x3c2532bb	0.010082896
211	0xbdb9d5fd	-0.09074018
212	0xbd7e20fb	-0.06204317
213	0xbdae4c79	-0.0851068
214	0xbd82772d	-0.06370387
215	0x3cc6ddb0	0.02427563
216	0x3cc0f232	0.023552988
217	0xbd35156d	-0.044209886
218	0xbe04cb75	-0.12968238
219	0xbd64fc93	-0.055904936
220	0x3d5cd8d6	0.05391773
221	0x3cef9fd0	0.02925101
222	0xbd0fcc7b	-0.035107117
223	0xbd4fc97e	-0.050729267
224	0xbdfa0fd6	-0.12210052
225	0x3c69e045	0.014274661
226	0x3d296508	0.041356117
227	0xbc6a2435	-0.014290859
228	0xbcd93350	-0.026513726
229	0xbcf799a8	-0.030224636
230	0xbd3a73e8	-0.045520693
231	0x3d2e5638	0.042562693
232	0xbd5a38a7	-0.053276684
233	0x3da34d1e	0.07973693
234	0xbc9ff8c8	-0.019527808
235	0xbdae8e59	-0.085232444
236	0xbd3ceb66	-0.04612293
237	0x3d8e5965	0.069506444
238	0xbc492791	-0.0122775
239	0xbce255c6	-0.02762879
240	0x3d01da09	0.031702075
241	0xbdb7d5e9	-0.08976347
242	0xbd2bfe01	-0.041990284
243	0xbceaaa5c	-0.028645687
244	0x3cfad496	0.030618947
245	0xbd974cdc	-0.07387707
246	0xbc9b6fc6	-0.018974196
247	0xbd79d242	-0.060991533
248	0x3cb91567	0.022593213
249	0x3d638bd0	0.055553257
250	0x3e3daf40	0.18523884
251	0x3dbb8cdd	0.09157727
252	0xbbb3949b	-0.0054803616
253	0x3d455faf	0.048186954
254	0x3d642552	0.055699654
255	0x3dd5443f	0.104134075

localization.3.bias f4 [10]
0	0x3ca93b6a	0.020658214
1	0xbdafeb6f	-0.08589827
2	0x3d6d9c94	0.058010653
3	0xbcfbf3bb	-0.030755868
4	0xb986e7af	-0.0002573109
5	0xbca8c8e7	-0.02060361
6	0x3caf42a5	0.021394083
7	0x3d48fc20	0.04906857
8	0x3c40414d	0.011734319
9	0xbd7512c9	-0.059832368
